Assets/NNmodels/Collector-ppo-903578.onnx (onnx, 334075 bytes, 9 tensors)

discrete_act_size_vector f4 [1, 2]
000000 00 00 00 40 00 00 40 40
       2.0 3.0

network_body._body_endoder.seq_layers.0.weight f4 [256, 60]
000000 0a bb 42 be 68 0c 2b 3e 93 f3 f5 bc 15 35 eb bd
       -0.19016662 0.16703951 -0.030023372 -0.11484734
000010 be 8d a5 bd 27 02 06 bd 28 98 95 3d f1 6b 9e be
       -0.08083676 -0.032716896 0.07304412 -0.30941728
000020 b3 e4 00 bd ef 0e 4e 3d 14 8b ff bd 52 40 32 3d
       -0.031468105 0.05030721 -0.12477699 0.043518372
000030 94 4d d8 bd b9 97 f8 3d ee 59 31 3d b7 29 41 3e
       -0.10561672 0.12138314 0.043298654 0.18863569
000040 93 9b 4d be cf a1 c5 3c 53 ee 3a bd eb 86 ba be
       -0.20078878 0.024125008 -0.04563744 -0.3643106
000050 cb ac ed be 7f c3 50 3c 47 72 1d be cc c8 48 bd
       -0.46420893 0.012741922 -0.15375625 -0.04901962
000060 86 c6 2d 3e 26 67 17 bd ee 45 82 3d c4 08 c5 3d
       0.16970262 -0.036963604 0.06360994 0.096208125
000070 74 c8 9a bc 1f a2 56 bd 8c 1d 0b be 27 c2 65 3e
       -0.018894412 -0.052400704 -0.1358549 0.22437344
000080 44 76 ea bd 65 d7 7b be e7 68 ff bc bd ec a1 3d
       -0.11448339 -0.24593885 -0.031177951 0.07906482
000090 2e b9 55 3e 68 53 a9 3d ed 1e 8f bd 32 ea 10 3e
       0.20871422 0.082678616 -0.069883205 0.14151838
0000a0 99 87 3e 3e d3 db 90 3e a6 40 6a 3e 87 96 34 be
       0.18606414 0.28292713 0.22876224 -0.17635547
0000b0 23 62 1e 3d 2e 7c 42 3d 83 9c 3e bc ca 6e dd bd
       0.03866781 0.04748171 -0.011633995 -0.10812147
0000c0 26 9e f9 bd 09 7e 33 3e 2f 20 34 be 9a 86 66 3c
       -0.121883675 0.17528547 -0.17590402 0.014070177
0000d0 cc 70 a8 3d 1a 7b 3a 3e 96 6c 93 bc a8 c7 3e be
       0.08224639 0.18211022 -0.017996114 -0.1863085
0000e0 e6 ca 0a 3d 31 68 ae bd 27 8c 79 bd d4 11 72 bd
       0.033884905 -0.08515967 -0.060924675 -0.059099033
0000f0 43 9a 8f 3d 81 48 2e 3e 4e 96 82 3c 1a c0 88 3d
       0.07011845 0.17019846 0.015940811 0.066772655
000100 32 1d c7 bc 4f 82 b9 bd 37 a5 c2 3d de 1e 96 3d
       -0.024305914 -0.090580575 0.095041685 0.07330106
000110 fd 72 6d 3e ad fd 82 3e 50 66 45 3d 24 17 0f 3e
       0.23188396 0.25584164 0.048193276 0.13973671
000120 e1 c2 02 3d 50 84 da bd 6d 98 8a 3b c5 6b 8d bc
       0.031924132 -0.10669768 0.0042295964 -0.017263303
000130 67 91 e2 bd 60 1b a3 bd 23 d2 a2 bd be 35 35 3e
       -0.110628895 -0.07964206 -0.07950237 0.17696282
000140 0f f3 9d 3b 9b 9f 00 bc c9 05 03 3e 28 23 d1 3d
       0.0048202346 -0.007850553 0.12795176 0.10211784
000150 02 25 41 3d 14 db aa bd 86 3b 54 be 8b 8d 0b 3e
       0.047154434 -0.08342567 -0.20725831 0.13628213
000160 65 93 dd 3b 22 0c a4 3d 3f 3e c9 3d 4e 7c 05 3e
       0.0067619556 0.08010127 0.098263256 0.130357
000170 7f c7 5d be 44 4b bf 3d ab 94 9e 3d cb 98 14 be
       -0.21658133 0.09340528 0.077432 -0.14511411
000180 35 d5 0b 3e fe 41 11 3e 9f e2 8a be fb 30 53 be
       0.13655551 0.1418533 -0.27126023 -0.20624153
000190 29 c2 27 be f7 44 f2 bd e2 8d 58 3d e2 c6 b2 bd
       -0.1638266 -0.1182956 0.052869685 -0.0872934
0001a0 a7 c6 0a be 7c 0d eb 3d 4f 04 80 3c c6 b2 20 3b
       -0.13552342 0.11477181 0.015627054 0.002452062
0001b0 23 0f 10 3e 5a e7 17 3e 5e 85 80 3e df be f8 3d
       0.14068274 0.14834347 0.2510175 0.12145781
0001c0 f8 eb 51 3d 2a 1c 0f 3d 9b 30 e7 bd df aa 65 3e
       0.051250428 0.03493897 -0.11288568 0.22428463
0001d0 78 46 4a bd 69 b0 21 3d 91 db c0 bd c7 76 32 3d
       -0.04938361 0.03947488 -0.09416879 0.043570306
0001e0 91 1b 92 bc 83 2f 3d bd 10 4f 02 3d 40 b7 63 3e
       -0.01783541 -0.04618789 0.03181368 0.22237873
0001f0 c9 64 93 bd d0 64 f5 3b 90 03 4b bb c3 28 a8 3d
       -0.071969576 0.0074888244 -0.0030977465 0.082109
000200 11 f8 23 3e e6 33 8e 3e fe 66 f7 bc e4 6f 05 be
       0.16012599 0.2777397 -0.030200478 -0.13030964
000210 bd 72 29 be 2c 08 12 3e b2 d1 06 be 67 86 f6 bc
       -0.16547675 0.1426093 -0.1316593 -0.030093385
000220 51 64 a8 bd 41 90 64 3e 77 e5 7f 3e 9a 33 82 bd
       -0.08222259 0.22320653 0.24989878 -0.063574985
000230 31 58 c9 3d ba 2c 7b 3e 41 6b ca 3d de 53 92 3c
       0.09831274 0.2452878 0.09883738 0.017862257
000240 02 d9 81 bd 5d 58 2b 3d 91 d0 cf 3b 90 ac 0a be
       -0.06340219 0.041832317 0.0063420017 -0.1354239
000250 01 f3 a7 be 07 c4 94 bc c3 89 57 3e 59 40 c1 3e
       -0.32802585 -0.01815988 0.21048646 0.37744406
000260 dc ef 39 bc 61 f9 33 3e 02 bf 33 3e 37 29 67 bc
       -0.011348691 0.17575599 0.17553332 -0.0141089475
000270 a1 97 3b be ae 60 f6 bd bb b6 f8 bd 9f c4 27 3e
       -0.1831956 -0.12030159 -0.12144228 0.16383599
000280 68 6a 39 3e fd 59 0c 3e df 82 31 3c ac 10 9c be
       0.18106997 0.13706203 0.010834425 -0.3048147
000290 e0 89 92 3c 2a 5f c4 bc 5a 53 90 bd 05 86 26 3e
       0.01788801 -0.023971159 -0.07047148 0.16262062
0002a0 2a 32 b5 3d 72 03 55 be 05 36 51 bd 2c 06 09 3e
       0.08847459 -0.20802096 -0.051076908 0.1338126
0002b0 41 bc 8a be 75 3c c1 3e ef 81 9e bd ee 6d 3d be
       -0.2709675 0.37741438 -0.077396266 -0.18498966
0002c0 41 5e b7 3d 1b 54 45 bd 26 23 96 bc 63 ad 68 3d
       0.089535244 -0.048175912 -0.018327307 0.05680598
0002d0 12 3e db bc a7 79 27 be 64 09 3a be 50 7a 01 3e
       -0.026762996 -0.16355 -0.18167645 0.12644315
0002e0 15 b6 57 3e e9 d3 cf bd ba dd 4f bd 1b 41 48 3b
       0.21065553 -0.101478405 -0.050748564 0.0030556384
0002f0 56 9b 30 3e 57 52 2e 3e f9 82 87 be e6 5d 58 be
       0.17246756 0.17023598 -0.26467112 -0.2112957
000300 ca be 42 3e 04 a3 18 be 3a 5f 16 be ea 3e 86 be
       0.19018093 -0.14905936 -0.14684764 -0.26219875
000310 7b dd 08 3e d1 ba c5 bd 0b ea 13 be 6e 82 2b be
       0.13365738 -0.09654773 -0.14444749 -0.16748974
000320 e0 52 69 3d ab 56 e3 3d a0 73 bc bd 76 e9 83 3e
       0.0569638 0.11100515 -0.09201741 0.25764054
000330 be 71 bb 3d d3 d6 b1 be 8e 9c 99 3d ea 84 92 3d
       0.09152554 -0.3473421 0.075005636 0.071542576
000340 1e 97 2a bc 6b dd 61 be be 50 53 3e 18 7f 21 be
       -0.010412006 -0.2205712 0.2063627 -0.15771139
000350 ce 87 64 3c 68 f0 ea bc a9 28 8f bd 15 05 91 3d
       0.013948394 -0.028679088 -0.06990177 0.070810474
000360 54 52 3d be bb 38 0a be 2d 77 ee bd 21 93 6b be
       -0.18488437 -0.13498203 -0.11643825 -0.23005344
000370 3d d3 6a 3e a2 68 0f 3e db 7e 95 be 34 e8 9c bc
       0.22932144 0.14004758 -0.29198346 -0.019153692
000380 30 de 18 be 49 c1 b3 3d 25 fd 86 3d e1 dc 1c 3e
       -0.14928508 0.087771006 0.06591252 0.15318634
000390 79 50 57 3d c8 da 64 bd 97 f5 25 be d7 4b 7f 3d
       0.05256698 -0.05587271 -0.16206966 0.062328186
0003a0 e2 73 9a 3e 36 05 bf 3c 40 36 6b bc 5b f5 09 ba
       0.30166537 0.023317914 -0.014356196 -0.0005262696
0003b0 40 9a 52 3e a9 fb 09 be 63 cb 52 3e c0 f3 50 3d
       0.20566654 -0.13474907 0.20585398 0.051013708
0003c0 a6 f9 93 3d a7 51 4c be 06 d0 0f bd 79 23 ec bd
       0.07225351 -0.19953023 -0.035110496 -0.11530203
0003d0 09 27 6a 3d a3 30 1d be 52 87 75 bd 19 5f d5 bc
       0.057166133 -0.15350585 -0.059943505 -0.026046323
0003e0 2b 22 fd 3d cc 94 84 3d 4d 5e a2 bd 09 37 a4 3d
       0.12360033 0.06473693 -0.07928143 0.080183096
0003f0 0b 70 8a 3d 69 28 a5 3b 5f 25 1b 3b da bc 80 3e
       0.06759652 0.0050402177 0.0023673398 0.25144082

network_body._body_endoder.seq_layers.0.bias f4 [256]
000000 14 0a 2b 3d b4 f2 b1 bc f5 42 76 3c 18 6b a4 bc
       0.041757658 -0.021722175 0.015030612 -0.020070598
000010 b2 95 b8 3c 82 d1 85 bc 17 f3 1a bc 94 28 ef 3c
       0.022532318 -0.016335253 -0.009457371 0.029194154
000020 5d 70 89 3c 48 53 31 bb e5 99 ce bc 8b b4 82 bc
       0.016777212 -0.0027057696 -0.025219867 -0.01595523
000030 37 b7 8d bc 8c e7 67 bc da 13 f5 bb 33 bc 26 bc
       -0.017299278 -0.014154326 -0.007479173 -0.010176706
000040 9c a1 59 bc f7 d1 bf bc 84 81 17 3d 5a fd 27 bd
       -0.01328316 -0.023415549 0.03698875 -0.0410131
000050 12 57 91 bc 94 29 71 3c 8c d0 c8 3c 83 d1 59 3c
       -0.017741714 0.014719386 0.024513505 0.01329458
000060 8a 67 cb 3c ee f5 f7 bc 8c 22 99 bc 0a a7 5f 3d
       0.024829645 -0.030268636 -0.018693231 0.05460266
000070 b4 f8 99 3c 01 1a b6 3c 1c 0e 77 3c 2c c0 ff 3c
       0.018795349 0.022229197 0.0150790475 0.031219564
000080 7e 69 c2 3c 4b 3c c6 3c f0 9a 17 3d f1 a1 19 bc
       0.023731943 0.024198672 0.037012994 -0.009376989
000090 33 ba ef 3c 88 bd ec ba 34 9b cc 3c 91 d3 34 bc
       0.029263591 -0.0018061856 0.02497635 -0.0110367695
0000a0 e8 1a 91 bb 56 aa 40 3d 06 05 58 bc ea 93 8b 3c
       -0.0044282563 0.047037445 -0.013184791 0.017038304
0000b0 71 98 b5 3c 42 4e 16 3d 2f db 77 3d 7b 18 25 bb
       0.022167416 0.036695726 0.060511764 -0.0025191593
0000c0 64 96 40 bb bb 37 28 3d 1a b3 79 3c f1 68 dc bc
       -0.0029386515 0.041068774 0.015240455 -0.026905509
0000d0 e6 52 81 3c 51 26 83 3d 38 30 79 3d 02 07 64 3d
       0.0157866 0.06403793 0.060837 0.055670746
0000e0 7c cf cf bb 01 21 93 3a 75 97 05 3d 67 53 87 3c
       -0.0063418727 0.0011225046 0.032615144 0.016519262
0000f0 47 e9 61 bc 57 58 a8 3c 95 3e 1d 3c df ea 21 bd
       -0.013788528 0.020549936 0.00959744 -0.03953063
000100 81 96 c9 bb e4 dc a6 3c db 99 e0 3a 25 24 2a 3c
       -0.0061519747 0.020369 0.0017135696 0.010384594
000110 9e 9a a1 3c 0c 84 80 3c c5 a3 1a 3d 93 d8 c4 3b
       0.019727048 0.015687965 0.03775384 0.006007263
000120 ec ab a3 3c 89 6a b6 bd 6e 71 67 3c 88 42 05 3d
       0.01997944 -0.08907039 0.014126165 0.032534152
000130 d4 78 a6 3c 2d 2d dd 3c 94 e2 ad 3a c9 a7 cf 3c
       0.020321287 0.02699908 0.0013266378 0.02534856
000140 83 7f f8 3b fc a2 b5 3c a9 fd 88 3d 00 0e d6 3c
       0.00758356 0.022172444 0.06689007 0.026129723
000150 08 dd 09 3c 95 03 09 3d e6 28 97 3c d2 60 0a 3c
       0.008414514 0.03345068 0.01845212 0.008445935
000160 02 65 4a bc df 85 8e b7 a1 ad 6c 3c 0a 50 52 3b
       -0.012353184 -1.6990058e-05 0.014445693 0.0032091164
000170 91 f6 64 bb c7 92 62 3d a4 12 ce 3b e4 08 ae 3c
       -0.0034937004 0.05531576 0.006288843 0.021244474
000180 90 d7 31 3d f7 61 4e bd 45 b9 1c 3d 7e de a3 bc
       0.043418467 -0.050386395 0.038262624 -0.020003553
000190 57 6f b8 3c 2a 08 e9 3b d4 79 a4 3c 72 dd 34 3c
       0.022514028 0.007111569 0.020077623 0.011039125
0001a0 cc 3e 10 bd 1f 80 d7 3c 95 46 39 3d 00 0b b1 3c
       -0.035216138 0.02630621 0.045233328 0.02161169
0001b0 76 a5 ad bc ec 12 1e 3c e1 cf ba 3c fc 6d 71 3c
       -0.021197062 0.009648066 0.022804203 0.014735695
0001c0 53 68 0d 3d 28 e9 c7 bb 56 5c 11 bd 74 2d 3a 3d
       0.03452332 -0.0061007924 -0.03548845 0.045453504
0001d0 50 7b 5d 3c 6f 35 1b bd 39 47 e9 3c ed fa 13 37
       0.0135181695 -0.037892755 0.028476344 8.820306e-06
0001e0 5b ac 4d bc 67 92 d9 3c 92 67 9c 3c 3c c3 20 bd
       -0.0125533 0.026559068 0.019092355 -0.03924869
0001f0 cc 6d 2b bc c6 c2 2d bc 7a a9 39 3c e5 91 2f 3d
       -0.010463189 -0.01060552 0.01133191 0.042863745
000200 c1 d2 a2 bd a7 4c 04 bc 6a 1e f3 3c 56 66 f2 bc
       -0.07950354 -0.008074916 0.029677588 -0.029589813
000210 7a 59 65 bc f6 e0 fd bc 38 71 40 bc 29 7b 6f 3c
       -0.013998384 -0.030991059 -0.011745743 0.014616766
000220 03 a7 01 3d 97 d0 ac 3c f0 84 96 3c 99 b3 68 3c
       0.031653415 0.021095557 0.018373936 0.014202976
000230 09 3c 11 3c bb e8 bd 3c 0d 5e 43 3c 86 28 41 3d
       0.008864411 0.023182264 0.011924279 0.047157787
000240 b4 80 c2 bc 95 0f b7 3b c0 6a 5c 3d 25 a7 ac bb
       -0.023743011 0.0055865743 0.053812742 -0.0052689486
000250 cb 87 24 bc 5c 30 13 3c 9e 06 1b bd 07 1e c4 3c
       -0.010042141 0.008983698 -0.037848108 0.0239401
000260 cf 90 0b 3d bd 88 44 bc 4a b4 47 3d 95 ac 70 bc
       0.034073647 -0.011995492 0.04875592 -0.014689584
000270 16 9e 0c 3c 8c 26 0d 3d b2 7c 3a 3d 97 5c a5 3c
       0.0085826125 0.03446059 0.045529075 0.020185752
000280 9b f0 5a bc 4c ef eb 3c 10 1e 50 3c 90 1d 51 3d
       -0.013363029 0.02880063 0.01270248 0.051053584
000290 c4 d7 05 bc 1d 18 47 3d c4 2e a4 3d 28 79 e0 bc
       -0.008169118 0.04860698 0.08016732 -0.027401522
0002a0 66 9a af 3d 4b a5 09 3c e3 df 61 3b 4e 96 6d bc
       0.08574371 0.008401225 0.0034465722 -0.014501167
0002b0 c1 ca 7b bc a6 e5 56 3b 21 77 52 3c f3 1c f6 3c
       -0.0153681645 0.003279069 0.012845785 0.030043101
0002c0 73 ef 51 bc d0 12 25 ba 6d f8 4d 3d 05 e1 31 3d
       -0.012813437 -0.0006297054 0.050285745 0.043427486
0002d0 cf 58 3f bc af 98 76 3c e6 ec 38 bc 42 cd 48 3d
       -0.011678888 0.015051051 -0.01128695 0.049023874
0002e0 0d 93 12 3d 3e 4f 4c 3a f3 44 c5 3c 66 06 4a bc
       0.03578477 0.00077937904 0.02408073 -0.012330627
0002f0 86 46 98 3c 6a da 74 3c 1a a9 24 3c 38 38 0a 3d
       0.018588316 0.014944652 0.010050083 0.03374502
000300 7a 5b d6 bb 7b db 08 bd f5 2b 2d bd 26 08 03 bd
       -0.0065416666 -0.033412438 -0.04227825 -0.031990193
000310 8e c5 46 3b 1d 27 99 3b f6 6c c4 3c 7b 5a 39 3d
       0.0030330154 0.004673852 0.023977738 0.045252305
000320 17 47 6b 3c f5 35 79 3d ae b1 c3 3c ef 0c bb 3b
       0.014360211 0.060842473 0.023888435 0.005708329
000330 cd 14 44 bd dd 20 39 3c f6 c0 48 bb 3d 18 1e bb
       -0.0478714 0.011299339 -0.0030632592 -0.0024123334
000340 9d 13 06 bb 6a a9 42 3c 2f 36 b6 bc f0 07 f4 bb
       -0.0020458468 0.011881212 -0.022242634 -0.0074472353
000350 b4 f9 12 3c e3 52 63 3c ad c0 6e 3c a8 7b b9 3c
       0.008970667 0.013874742 0.014572305 0.022641972
000360 8a 66 a2 bd 2f 14 b7 bb 39 15 82 3c 17 e8 04 bc
       -0.07929714 -0.005587123 0.01587926 -0.008111975
000370 be 9c 97 3c 7e 36 13 bd 27 09 0f 3d 28 7d 3c 3d
       0.018507358 -0.03594064 0.034920838 0.046017796
000380 03 d1 3e 3d 6a ee e1 3c 0d 52 f2 3b 94 e5 e7 3c
       0.046586048 0.027579505 0.007395035 0.028307714
000390 51 d6 c0 bc 12 c3 1f b9 e3 9a 64 bc a5 9f 6f 3b
       -0.023539694 -0.00015236091 -0.0139529435 0.0036563661
0003a0 86 88 9f 3a e1 6a 41 bd ad 0a a5 3c e8 ea 0b 3d
       0.0012171424 -0.04722107 0.020146692 0.03415957
0003b0 d5 d7 c6 bd 18 2a 54 3d df b2 f5 bc ac 11 c5 bd
       -0.097091354 0.051797956 -0.029992519 -0.09622511
0003c0 b8 d3 46 bc f5 60 80 3c b3 83 ad bb 4d 8d 45 3d
       -0.012135439 0.015671233 -0.005295241 0.048230458
0003d0 35 63 40 3c b5 0e 47 3d a4 fc 37 3c c9 d9 fc 3b
       0.011742403 0.04859801 0.011229668 0.0077163917
0003e0 72 13 4c 3d 51 e0 16 3d 2e ad 9c 3c 01 04 60 3b
       0.049823232 0.03683502 0.019125547 0.0034182074
0003f0 ea 28 c5 3b fe 02 3c 3d 51 3b 53 bc 11 00 49 3d
       0.00601684 0.04590129 -0.01289256 0.04907233

network_body._body_endoder.seq_layers.2.weight f4 [256, 256]
000000 70 79 98 bd 80 51 9b 3d 50 fc bb bb 64 b3 da bc
       -0.07445037 0.07583904 -0.005736865 -0.026696868
000010 20 97 b5 3d 77 9a f4 3d 7e b7 bc 3d 71 11 e1 3d
       0.088667154 0.11943524 0.09214686 0.10989655
000020 4e 8d bb bd 1b 60 b2 bc 97 ed 94 3c af f9 12 bd
       -0.09157811 -0.021774342 0.018179698 -0.035882648
000030 04 74 17 bd d1 1f db 3d 60 c3 5b bc e4 40 d4 3d
       -0.036975875 0.10699428 -0.01341328 0.103639394
000040 52 f8 77 3c 7b 1c df bd 07 d5 24 bd 6f 1a 66 3d
       0.015134888 -0.10894104 -0.04024222 0.056177553
000050 03 42 16 3d 03 0d 40 3e 02 ef 92 bc 76 07 88 3d
       0.036684047 0.18754964 -0.017936233 0.06642048
000060 a9 b6 e4 3d dc 63 9f 3d f7 f0 88 bd 83 47 05 3d
       0.11167652 0.077827185 -0.066865854 0.032538902
000070 4f d3 26 bb 80 4d c9 3c f9 8c 8f bd 69 7e 49 be
       -0.002545554 0.024573088 -0.0700931 -0.19677128
000080 04 cc 31 3e 7d 0a f4 bb c1 d4 10 3d 24 2d cf 3c
       0.17362982 -0.0074475394 0.035359148 0.02529008
000090 64 4c 03 3e fe 03 72 bd f5 f4 c2 bd 39 6a 0e 3d
       0.1282211 -0.05908584 -0.09519378 0.03476927
0000a0 ea 01 08 3d 54 66 d8 bd 25 50 04 3e 9b ef 2b be
       0.03320495 -0.105663925 0.12921198 -0.16790621
0000b0 5c 5d 2a 3c d7 25 20 3d 4d 76 1e bd 3a 84 fa 3d
       0.010398235 0.039098587 -0.03868704 0.122322515
0000c0 b1 b1 1a bd 9d 85 b0 3d 99 a3 d1 bc 15 65 9b 3c
       -0.037767116 0.08619235 -0.025590705 0.018969098
0000d0 04 57 5a bd eb 0a b0 3c d9 e6 5a 3d 7b b0 da bd
       -0.05330564 0.021489581 0.05344281 -0.10678192
0000e0 e4 bd ef 3c 77 ad 8e 3d 46 a9 09 be 1e e7 fe 3d
       0.029265352 0.069666795 -0.13443479 0.12446426
0000f0 3f 45 f4 b9 12 81 77 3d c1 d9 2a bd 50 99 03 bc
       -0.000465909 0.060425825 -0.041711573 -0.008032158
000100 ea 40 e3 3c 30 d7 d1 bd f6 52 5e 3d f9 0f f8 3b
       0.027740914 -0.10246122 0.054278336 0.0075702635
000110 8b 0e 81 3d e6 2d 0e bd 27 7e a3 bc 87 cc 90 3d
       0.06301602 -0.03471174 -0.019957615 0.070702605
000120 4e 20 e9 bc f4 d8 1f 3c 91 90 51 3e 29 60 93 bd
       -0.028457787 0.0097563155 0.20465304 -0.071960755
000130 e6 e3 fd bc 94 b0 48 bd fb ce 32 bd c1 8c b3 3d
       -0.03099246 -0.048996523 -0.043654423 0.08767081
000140 6e 51 a2 3d 78 8b c8 3c f0 33 9f bc b3 4c 9e bd
       0.07925688 0.024480566 -0.019433945 -0.07729473
000150 07 82 01 3d f6 41 91 3d 7a 3e a7 3c 83 4d 8b 3d
       0.031618144 0.07092659 0.020415533 0.068018936
000160 10 04 46 bc 19 f7 3b 3c f5 75 92 3c 75 9d b0 bc
       -0.0120859295 0.011472487 0.017878512 -0.021559456
000170 b5 b4 c1 bb ca 3f 1a bd ad c9 96 bc f8 38 9d 3d
       -0.0059114345 -0.03765849 -0.018406713 0.076768816
000180 24 ea 5c bd e7 42 e4 3c 93 3f 0f bd a2 a9 a1 3d
       -0.05393423 0.027863933 -0.03497274 0.07893683
000190 7a 83 61 be ad a3 72 3c 02 67 2e be e8 14 a7 3d
       -0.2202281 0.014809531 -0.17031482 0.081582844
0001a0 79 f9 43 3d 9a 62 78 3d 1f 47 b0 3c 1e 76 66 3d
       0.047845338 0.06064091 0.021518288 0.05626499
0001b0 80 1b 20 3d c1 f4 21 bd 3b 59 4d bd 7e e8 da bc
       0.039088726 -0.039540056 -0.050133925 -0.026722189
0001c0 41 38 b8 3c 9a e3 10 3c e6 e0 0a 3b ce 31 6b 3d
       0.022487761 0.008843327 0.0021191179 0.057420544
0001d0 ec 0c f7 3d be 2c 0c 3c b5 56 06 3c 7b bb 7a 3b
       0.120630115 0.008555589 0.0081993835 0.003825872
0001e0 12 c4 69 bc 6f 99 81 bd 15 e3 20 be 54 b9 29 3d
       -0.014267938 -0.06328093 -0.15711625 0.04143651
0001f0 dc 9c c7 bd 39 83 b1 bc de e8 73 3e af ea ac bc
       -0.097467154 -0.021669017 0.238193 -0.021108
000200 04 eb 58 3d 90 44 30 bd fe 9a c2 3c 7b cd ef 3b
       0.052958503 -0.043034136 0.023755547 0.0073181964
000210 6b cc 01 3d d9 a1 d9 3d 40 eb eb bd 9b 9d 8e 3d
       0.03168909 0.10626573 -0.1151948 0.069636546
000220 1d f7 21 be 72 fe 03 3e 40 87 12 3e 06 2b 96 bd
       -0.15816922 0.12890032 0.14309406 -0.07332425
000230 ad c4 cf 3c 9c 89 9f 3d 47 ed 99 bb 2c f1 79 bd
       0.025362337 0.07789919 -0.004697475 -0.061021015
000240 ed 87 db ba f4 32 f5 3d 9d 3d 06 3b a2 0c 89 3c
       -0.0016748883 0.11972609 0.0020483502 0.016729657
000250 ac f0 76 3c bf d1 01 bd ef c5 c4 3c c3 e2 18 3d
       0.015072029 -0.03169417 0.024020163 0.03732563
000260 68 c8 da 3c 99 21 8a bd 36 cf 83 3d ba 85 b0 3d
       0.02670689 -0.067446895 0.06436007 0.08619256
000270 5e 1f ea bb a8 81 37 bc 47 21 97 3d 1f a5 0e bd
       -0.0071448525 -0.011200346 0.07379394 -0.03482544
000280 1c 41 6b bc ea d5 05 be 94 7d b9 3c ff fd a2 bd
       -0.014358785 -0.13069883 0.022642888 -0.07958602
000290 4d 67 11 3a f9 d7 eb bc ed 65 ea 3b 38 c7 ba bd
       0.0005546704 -0.028789507 0.007153264 -0.09120029
0002a0 3e c4 51 bd 58 d0 6a 3d 7e 7d bc bd c2 87 71 3d
       -0.05121254 0.0573276 -0.09203623 0.05896736
0002b0 26 90 65 bd c6 e3 91 3d 00 88 0b 3d f4 a7 f0 3d
       -0.056045674 0.071235225 0.034065247 0.117507845
0002c0 8e c7 fe 3d a9 13 20 3e ad e8 00 3c 20 cf 58 bd
       0.12440406 0.156325 0.007867974 -0.052931905
0002d0 23 84 40 be 6a cb 14 3c 31 82 66 3d 19 b1 a6 3d
       -0.18800406 0.009081701 0.056276504 0.081392474
0002e0 9b d1 94 3c 1f bf 38 bd b6 d3 0b be d8 86 46 bd
       0.018166354 -0.045104142 -0.1365498 -0.04846844
0002f0 02 60 17 3a 4f 11 9a 3d 3c 35 9c 3d 53 3e 89 bc
       0.0005774499 0.075228326 0.07627341 -0.016753351
000300 f5 fc 45 3d 13 30 7d 3d f7 73 bd bd 91 12 b2 3d
       0.04833694 0.061813425 -0.09250634 0.086949475
000310 69 7e 26 3e 7c 5a 17 3e 69 7b 72 3d 7c c0 22 be
       0.16259159 0.14780611 0.059199724 -0.1589374
000320 7a ce cc 3d 75 fd 26 3e 39 47 15 bd 03 75 0a 3d
       0.1000032 0.16307624 -0.036444876 0.033802997
000330 4c 76 42 bd 7a d4 6f bd 54 82 d7 bc 8b fb 4e 3d
       -0.047476098 -0.058552243 -0.026307262 0.05053286
000340 e4 3a ba bc 55 6b f1 b9 78 f7 c4 3d 2c f6 2a bd
       -0.02273316 -0.0004604707 0.096175134 -0.041738674
000350 fe 96 13 bd 80 8f 36 3d ea eb 9e bd 0c 54 fe 3b
       -0.03603267 0.044570446 -0.07759841 0.007761484
000360 32 c9 30 3b 9c 07 11 bd 01 23 41 bd 9d fb 7d 3c
       0.002697539 -0.035407647 -0.047152523 0.015501884
000370 6f 17 0a bd 01 57 c0 3c 03 fa 75 bd 5b 8b 2f 3d
       -0.033713754 0.023478987 -0.060052883 0.04285751
000380 39 46 9a bc d9 6d c2 bd ef b6 d1 3d a8 b9 34 3d
       -0.018832313 -0.09493608 0.1023997 0.044122368
000390 62 cd d2 bc d1 eb 82 3d d1 f2 69 3c 43 82 b0 bd
       -0.0257327 0.06392635 0.014279083 -0.086185955
0003a0 70 c8 f9 3d 6d 68 0a bd 76 41 f4 3d 27 ad 0e 3e
       0.121964335 -0.033790994 0.11926548 0.1393324
0003b0 eb ef 10 bc 98 c5 2f bd 9a 8d 2c 3d dd 44 58 bd
       -0.008846263 -0.04291305 0.04212723 -0.05280005
0003c0 80 10 a3 3d 3b 7f a5 3d f8 03 b4 3d 41 7d 20 3d
       0.079621315 0.08080908 0.087898195 0.03918195
0003d0 dc 8c 58 3c 1c bb 78 bc 42 ad 66 bc 64 67 08 3e
       0.013217177 -0.015181329 -0.014079394 0.1332069
0003e0 d0 92 90 3b ad 90 a3 bc c3 b0 21 3d e1 4a 5a bd
       0.0044120327 -0.019966448 0.039475214 -0.053294066
0003f0 a6 77 c4 3c 62 ca 52 bd 19 a3 67 3d b2 a7 14 bd
       0.023982834 -0.05146254 0.056552026 -0.03629274

network_body._body_endoder.seq_layers.2.bias f4 [256]
000000 fb fa a7 3b be a2 2e 3d 44 1b f5 3c b7 ac b8 3c
       0.0051263548 0.04263567 0.029920228 0.022543294
000010 19 b0 35 3d 10 fa 4e 3c f5 05 5b 3d c7 9e 69 3b
       0.044357393 0.012632862 0.053472478 0.0035647617
000020 4e 95 87 bc d1 b2 b4 3c 44 23 9a 3c 12 4b c8 3c
       -0.016550686 0.022057923 0.018815644 0.024449859
000030 63 d6 9d 3b 6b b3 01 3c 44 fd 18 bc 35 e7 7c 3b
       0.0048168167 0.007916312 -0.009337727 0.0038589959
000040 cb db f2 3c 3a f6 ac 3c 0f e5 fe ba d1 93 83 3b
       0.029645821 0.021113504 -0.0019446927 0.004015424
000050 da 56 51 3c c1 81 e5 3c 67 05 5b 3c af b3 a3 b9
       0.012777055 0.028015973 0.013367987 -0.00031223657
000060 30 d4 65 3c 75 a2 ee 3c 9a 16 df 3a 45 d3 b9 3c
       0.01402764 0.0291302 0.0017020286 0.022683749
000070 da 0e a1 3c 3f f0 04 3d 44 63 dd 3c f4 fb 1d 3d
       0.019660402 0.03245568 0.027024873 0.03857036
000080 55 9f bb 3c e2 6c ed 3c b4 af 8e bc 60 a6 4b 3b
       0.022903124 0.028982583 -0.017417766 0.003107451
000090 26 bd 45 3c b4 f2 38 3d a0 9b 24 bb b5 64 d5 3c
       0.012069022 0.045153335 -0.0025117174 0.026048997
0000a0 67 b6 19 3d 51 cd d5 bb 79 04 02 3d 04 d6 da bb
       0.037527468 -0.0065247198 0.031742547 -0.0066783447
0000b0 30 e3 a9 3b 75 0f c4 3c 9a f0 d1 3b ba 47 91 3b
       0.0051845536 0.023933152 0.006406856 0.0044335993
0000c0 29 0a 14 3d 41 9a 53 3c 0a 1b 1b 3c f4 7a 61 3d
       0.036142502 0.012915195 0.009466896 0.055048898
0000d0 90 a6 2e 3d 02 ab 63 3c 9f 5b 60 bb 19 39 b7 bb
       0.042639315 0.013895752 -0.0034234298 -0.0055915234
0000e0 75 6c 0a 3a a8 8b fb 3c 3c 1e a2 3c 69 9d 4f 3c
       0.00052804436 0.030706242 0.019789807 0.012671807
0000f0 bb b8 40 3d 8f dc 8c bc c9 20 04 3d 4c e5 99 ba
       0.047051173 -0.017195014 0.03225783 -0.001174131
000100 25 6b 3f 3d ac 27 a6 3c a4 8b 6b 3c 72 fd e8 3a
       0.04673304 0.020282589 0.014376555 0.0017775728
000110 c2 64 4a 3d cd 1d 84 3c b1 80 6b bc ee f9 00 3b
       0.049412496 0.016127491 -0.014373944 0.001968022
000120 4b e1 64 ba c5 c8 c3 3b 3a ef 03 b9 e2 ff 8d 3c
       -0.0008731081 0.0059748613 -0.00012582252 0.017333928
000130 9a 0a bc bc 11 74 8b bb d9 f8 a2 3c a0 c5 70 3d
       -0.022954274 -0.0042557796 0.01989405 0.05878222
000140 9c 41 31 3c 2c ad 0f bc 56 8b ec bb 7b 4b 0e 3c
       0.010818865 -0.008769315 -0.0072187586 0.008684988
000150 8f e1 b4 3c 1c 9a 27 ba 7c 56 2e 3d 25 61 03 3c
       0.022080211 -0.00063935085 0.042562947 0.0080187665
000160 14 5c 1b 3d 35 0b bd 3c 65 b9 b4 39 0b 71 03 3b
       0.03792961 0.023076633 0.00034470405 0.0020056393
000170 42 e7 20 3c 14 35 73 3a b1 46 0a 3d 09 aa 1b 3d
       0.009820761 0.00092776236 0.033758823 0.038003955
000180 60 d4 6a 3b e0 68 b1 bb b2 3f b5 3c 49 ce 39 3c
       0.0035832152 -0.0054141134 0.022125099 0.011340686
000190 bd 88 0d 3c 01 e7 bf 3c 09 6a 1c 3c 24 f5 6b bb
       0.008638558 0.023425581 0.009546765 -0.003600427
0001a0 4d d9 44 3c 28 e7 d3 3c 5a 70 ae bc 1b ca 8d 3c
       0.012014699 0.02586706 -0.021293808 0.017308285
0001b0 c5 d3 43 bc fd 22 d0 3c 76 e5 28 3c b3 19 91 3c
       -0.011952345 0.025407309 0.010308614 0.01771245
0001c0 f4 1d cc 3c 17 1d 80 3c fe 73 9b 3b d7 ec 35 3d
       0.024916627 0.015638871 0.004744052 0.04441532
0001d0 12 6d 37 3d da 00 f5 3b ad ee 06 3d 5d 75 19 3d
       0.044781752 0.007476908 0.032942463 0.037465442
0001e0 b8 f8 48 3a df 69 c1 3c 01 49 8a 3b 56 9f b5 3c
       0.00076664565 0.023610054 0.0042201285 0.022170704
0001f0 d1 7e 39 3c a4 9a 88 bc 5b a3 df bc 29 31 c3 3b
       0.011321739 -0.0166753 -0.027299574 0.005956788
000200 bb a1 68 3b f2 e1 28 b9 c7 25 45 3d e5 9f cf 3b
       0.003549679 -0.000161059 0.04813173 0.0063361996
000210 2b 97 11 3d df 15 87 bb fa 23 7a 3c 62 82 ce 3c
       0.035544556 -0.0041224803 0.015267367 0.025208656
000220 55 bc 37 3d e2 97 67 3d 38 04 44 3d 72 2c 8c 3c
       0.04485734 0.05654133 0.047855586 0.017111037
000230 ba 52 22 3c 2a 60 9b 3c 21 d5 c4 bb 86 b8 c6 3c
       0.009907419 0.018966753 -0.0060068523 0.02425791
000240 12 92 0b 3d e3 2d 07 3d a3 a2 d4 3b 3b f4 88 bb
       0.03407485 0.033002745 0.0064891144 -0.004179505
000250 c9 94 67 bc e5 4a df 3c 85 36 27 3d de 7b 53 3d
       -0.014134594 0.027257392 0.04082348 0.0516318
000260 98 94 b2 3b ec 7e 39 3d 9e 40 10 bc 1b 1f f9 3b
       0.0054498427 0.045287058 -0.008804468 0.007602585
000270 22 87 ce bb 94 ac c1 bb 84 7b 17 3c 60 a7 6c bc
       -0.00630273 -0.0059104655 0.009245757 -0.014444202
000280 28 41 87 3b 55 dc 16 bc a3 1b f1 3b c2 e1 e4 bb
       0.0041276403 -0.009207805 0.007358031 -0.0069849202
000290 f7 99 7e bb 74 19 98 bb 3b f8 2f 3d b6 e3 36 3d
       -0.0038849094 -0.004641706 0.04296134 0.044650756
0002a0 15 98 25 3b 20 40 1e 3d 33 22 9c 3c 91 67 58 3c
       0.002526765 0.038635373 0.019059276 0.013208286
0002b0 e2 d0 39 3d df 4b c3 bc f3 6a 9d bb f4 96 30 3c
       0.04536522 -0.02383989 -0.004804009 0.0107781775
0002c0 3e 3c 87 3b 35 b7 64 bc 90 cf 9a 3c ab 1b cd 3c
       0.0041270545 -0.013959696 0.018897802 0.025037607
0002d0 f9 87 71 bb 92 fc ca 3c 32 dc 0c 3d 12 5a 66 3d
       -0.0036854728 0.024778638 0.034389682 0.05623824
0002e0 f9 59 0f bc 58 b1 4d 3c 82 3a 53 3c af 4a 51 3d
       -0.0087494785 0.012554489 0.012892367 0.051096614
0002f0 fb dd 89 3c a5 b8 e4 3c b6 a7 36 3d 16 58 17 3d
       0.016829481 0.027920077 0.044593535 0.03694924
000300 17 3b c5 3c 43 b5 3e 3c 90 c9 3f 3c 7c 9b ff ba
       0.024076028 0.011639896 0.011705771 -0.0019501294
000310 45 fa fd 3c 2d 54 e5 3c 4e fa 75 3d be 0d 31 3c
       0.031003127 0.02799424 0.060053162 0.010806499
000320 84 05 9b bb 39 c8 41 3c 90 3d 3f 3d 1c 91 08 3d
       -0.004730882 0.011827522 0.04668957 0.033341512
000330 9e 9a e7 bc 38 c5 45 3c 51 55 13 3d 9b 2f b1 39
       -0.02827197 0.012070946 0.035970036 0.0003379554
000340 d7 45 69 3c 6a 3f 52 3d 87 db c3 3a d8 fe c3 ba
       0.0142378425 0.051330008 0.0014942744 -0.0014953269
000350 68 0f 16 bc 2f 40 f2 3c 9c a3 79 3d 02 6d 43 3d
       -0.009158947 0.02957162 0.060947046 0.04771138
000360 46 81 f7 3c e1 6b 6e 39 51 7c 39 3a b1 07 47 3a
       0.03021301 0.00022737637 0.00070757145 0.00075923937
000370 d0 44 af 3c e9 1e 4a 3b 3a 38 db 3c 04 1e 4e bc
       0.021395117 0.0030841178 0.02676021 -0.0125803985
000380 9e bb 0e 3d d1 ed d8 3b d3 54 2d 3c 24 46 36 3d
       0.034846894 0.006620147 0.010579306 0.044500485
000390 75 26 29 3d 35 5a 99 3c d9 b0 40 3d 6c 1e a9 3b
       0.04129644 0.018719772 0.047043655 0.0051610973
0003a0 2c 0c 9c 3c 7c 02 f8 bb 6e 4e 1f 3d e3 77 ce 3c
       0.019048773 -0.0075686555 0.038893156 0.02520365
0003b0 96 78 6e 3c c6 76 97 3c bd 82 4c 3d 30 cb ae 3c
       0.014555117 0.018489253 0.04992937 0.021337122
0003c0 19 2c 40 3d a3 3b a5 3c 97 36 a2 3b f1 ab fc 3c
       0.046917055 0.020170039 0.0049503553 0.030843707
0003d0 85 98 23 3d f7 9b 2a 3d 97 7e 4b bc 2e 27 b1 3a
       0.039940376 0.041652646 -0.012420318 0.0013515705
0003e0 9d 1b 82 3c d2 5a d0 3c 3b 8f 5e 3b 27 dc 59 3d
       0.015882308 0.025433931 0.0033959884 0.05318847
0003f0 3c 0d b3 3c 0a 35 ad 3c 9e 22 2e 3d 80 39 25 3d
       0.021856897 0.021143455 0.042513482 0.04033804

action_model._discrete_distribution.branches.0.weight f4 [2, 256]
000000 a5 4a 25 3d db 56 64 3c fe 2d 89 bc 77 7f 8e 3d
       0.04035439 0.013936724 -0.016745564 0.06957906
000010 53 28 73 3a e1 19 74 bd be 72 de 3b 78 85 8d 3c
       0.0009275723 -0.059594993 0.0067885807 0.017275557
000020 b9 fe a6 bc 90 42 89 3d 66 80 9f bd 82 ff 0b 3e
       -0.020385133 0.06702149 -0.07788162 0.13671687
000030 45 a9 88 3d c1 8e a6 3d 0e f8 ac bc c3 b6 ea 3d
       0.066729106 0.08132697 -0.021114375 0.1146064
000040 15 cd 73 bc 22 58 ce bc 53 9e 4a 3c 75 be 21 bd
       -0.014880438 -0.02518851 0.012366849 -0.039488275
000050 f4 34 88 3c 45 21 97 bd ea c3 f4 3d b0 ec cd 3d
       0.016626813 -0.073793925 0.1195143 0.1005491
000060 9e 85 92 bd c8 db 9c bc b0 69 c6 3d 22 76 5c bd
       -0.07154392 -0.019147769 0.09688127 -0.053823598
000070 bc 1b 86 bc 97 4a 91 3d e4 f1 81 bd 4d 53 3b 3d
       -0.016370647 0.07094305 -0.06344965 0.04573374
000080 c3 fa 8c bc 5e 83 c1 3d 32 96 23 3b 4c 19 e4 3c
       -0.017209416 0.094488844 0.002496135 0.027844094
000090 58 37 5b bd 91 ad 07 3d ca ad e9 3c 41 13 b3 bd
       -0.053519577 0.03312451 0.028525252 -0.08743907
0000a0 3d 49 92 bb 5e 1a 91 3c 47 cc bf 3d f9 92 60 3c
       -0.004464297 0.017712768 0.09365135 0.013706916
0000b0 57 40 20 bd 30 89 14 3e 98 cd 92 3b 0a 98 17 bc
       -0.03912386 0.14505458 0.004480075 -0.0092525575
0000c0 a1 89 9d bd 25 47 46 bd 4c 44 98 3d 35 d6 c8 3c
       -0.07692266 -0.048407692 0.074349016 0.024516204
0000d0 c9 1e db bc b1 2e 4b bd f3 a3 db bc d9 25 56 3d
       -0.026748078 -0.049605075 -0.026811576 0.052282188
0000e0 fa 65 f3 bc 71 d2 58 bd 62 5e 29 bd ef 08 f0 3d
       -0.029711712 -0.052935068 -0.041349776 0.11720454
0000f0 14 82 eb 39 b7 a1 b8 3c e4 4f d1 bd bd 3c a7 bb
       0.0004491961 0.02253805 -0.10220316 -0.005103676
000100 21 37 ac bd f1 51 8c bd 0e a1 48 bd 8e cb 15 bd
       -0.084089525 -0.068515666 -0.04898172 -0.036571078
000110 e7 6d 74 3c 65 3f 4e bb 96 d1 fc 3c b0 c2 8a bc
       0.014918781 -0.0031470892 0.030861657 -0.016938537
000120 f2 16 87 3d 36 34 43 3b 94 84 c9 b9 0f 97 af 3c
       0.06596173 0.0029785759 -0.00038436486 0.021434335
000130 41 a3 49 bc 10 e2 b7 3c 1e 36 5e 3d 56 83 ce 3c
       -0.012306989 0.022446662 0.05425083 0.02520911
000140 3e 5b a5 3d c8 a4 25 3d 4f 1d 8d 3c a1 3e b1 3d
       0.08074044 0.04044035 0.01722589 0.08654524
000150 f5 08 e1 3d af 46 47 3d 4d 5a 9f 3d dc 02 71 3d
       0.109880365 0.048651394 0.077808954 0.058840618
000160 3d 08 5e bd f3 73 45 bc c9 9a 11 3d e4 98 a7 bc
       -0.054207075 -0.01205157 0.035548005 -0.020458646
000170 b5 e7 3c 3d 1a b3 26 3d 4d 7e 23 bc 30 d0 27 3d
       0.04611941 0.04069815 -0.009978843 0.040970027
000180 37 73 67 3d f1 30 d1 3c 81 38 7d bd 69 2a bd 3d
       0.05650636 0.025536032 -0.061821464 0.09236605
000190 d3 2e 0c bd 26 0b aa bd c6 e6 eb bc ec 29 25 3d
       -0.034224343 -0.08302908 -0.028796565 0.040323183
0001a0 b0 0b a2 bd 2f 60 a6 b9 53 a2 3b bc 7d f4 53 bd
       -0.079123855 -0.0003173365 -0.011452275 -0.051746834
0001b0 ba d2 3e 3d a0 ed ec bc 99 81 26 bb 74 9b 92 bd
       0.046587683 -0.028921902 -0.0025406836 -0.071585566
0001c0 f2 d6 8f bd f4 37 8f 3d 09 be 13 3d b9 88 20 3c
       -0.070234194 0.06993094 0.036069904 0.009798222
0001d0 5b 56 f9 bd 2b 7d 9d 3d b6 23 c9 3d 57 11 cd bd
       -0.12174674 0.076898895 0.098212644 -0.10013073
0001e0 37 97 14 bd d1 dd 04 3d 4a 16 67 3c ce dc 3c 3d
       -0.036277022 0.032438103 0.014104435 0.046109013
0001f0 51 2c 54 bd 01 b5 b8 3c 37 b4 a6 3b 07 c2 1d 3c
       -0.051800076 0.022547247 0.0050874013 0.009628779
000200 1e f2 7d 3d 21 90 97 bc 50 fc 17 3d 39 4d 0f 3d
       0.06199848 -0.018501343 0.03710586 0.034985755
000210 f2 b9 34 bb a3 71 a4 3d 7d b7 89 3d d1 34 89 3d
       -0.0027576652 0.08029487 0.06724451 0.06699527
000220 fa 56 1a 3d 77 2f 8c 3d a9 7b 43 3d c6 da 18 3d
       0.037680604 0.06844991 0.047725353 0.037318014
000230 f5 d3 72 bc 32 e1 ca bc f4 ea d3 bc ed 5e 09 bc
       -0.014821042 -0.024765585 -0.02586887 -0.0083844485
000240 2c 96 88 bd aa 5d 56 bd a1 58 1c 3c 1a c7 7f bc
       -0.06669268 -0.05233542 0.009542615 -0.015611434
000250 c0 11 04 bb c5 c6 0b bd e8 63 e4 bd cb 72 53 3d
       -0.0020152181 -0.03412511 -0.11151868 0.051623147
000260 ed c2 ee 3c 9a 06 d2 3c bb 6f ad 3c e1 fb a1 bc
       0.029145682 0.025637913 0.021171441 -0.019773426
000270 d7 5b 4e bb f0 c7 77 bd b9 51 89 bd 88 b2 ca 3b
       -0.0031487846 -0.06049341 -0.067050405 0.0061858334
000280 f2 fa 13 3c be 31 df 3c e2 a7 0a 3d 8c f6 a2 3a
       0.009031998 0.027245399 0.03385151 0.0012433096
000290 5d b8 83 bc 9f 65 34 bc 63 95 de 3c c9 d7 ea 3c
       -0.016079122 -0.0110105565 0.027170843 0.028667348
0002a0 00 71 be bc df d3 b6 bd 34 07 9b bd 32 76 dd bb
       -0.023247242 -0.0892713 -0.07569733 -0.0067584747
0002b0 08 46 bc bb 2e 1b 30 3c 44 74 d7 3a 19 8f 0e 3c
       -0.005745653 0.010748668 0.0016437848 0.008701109
0002c0 47 33 a6 3d 6d eb 87 3c 5c 00 b5 bd 78 ed 7a bd
       0.08115249 0.016591752 -0.08837959 -0.061261624
0002d0 7f 74 36 3c cc b2 0c 3e 1a b1 a6 bd a4 ac 9a 3c
       0.011136173 0.1374008 -0.08139248 0.01888115
0002e0 92 87 74 bc d6 c8 81 3d de c1 9f 3c 85 95 57 3d
       -0.014924901 0.063371345 0.019501623 0.052632827
0002f0 98 51 f1 bc 56 6e ae bd c2 71 8e bd 4e ad 9d bd
       -0.029457852 -0.08517139 -0.06955291 -0.07699071
000300 02 c4 ab bd 5f 84 41 bd 85 cb fc bc 6d f8 19 3d
       -0.08386995 -0.04724538 -0.030858764 0.037590433
000310 05 02 79 bd de 3a b7 3c f1 99 f5 3c 83 61 a6 3c
       -0.06079294 0.022366937 0.029980632 0.02031017
000320 a2 e2 0f 3d e6 f9 31 bc f0 9a cc bc 2f 75 06 3e
       0.035128243 -0.010862803 -0.024976224 0.1313064
000330 e3 f9 6a 3d e5 fb 93 bd 14 36 a0 3b 2c 67 96 3c
       0.057367217 -0.072257794 0.004889259 0.018359743
000340 32 7c 1b 3d 90 a9 9f 3c 9a 5f 0b bd a6 a1 30 bd
       0.03796024 0.019490033 -0.03402672 -0.04312291
000350 b8 be dd 3c ef eb 85 3c 1e 85 32 3d 16 4d 85 bc
       0.02706848 0.016347853 0.04358398 -0.016272109
000360 a5 7a a1 bd 27 c4 03 bd b1 04 95 3c 8b 25 f6 bc
       -0.07884721 -0.032169487 0.018190714 -0.030047199
000370 03 20 56 bd f0 de 45 bc b1 f1 bc bd 09 ee 6b bc
       -0.052276623 -0.012077078 -0.092257865 -0.014400014
000380 65 02 2d bd df d7 20 bb d9 2d 58 bb b7 75 26 bd
       -0.04223861 -0.0024542732 -0.0032986312 -0.040639605
000390 01 3f ae 3d 83 b8 bd 3d 49 50 38 3d c5 45 d6 3d
       0.08508111 0.092637084 0.04499844 0.10462526
0003a0 6b 11 0f bd b6 ba 04 3d b4 4d 91 3d 5d 33 6c bb
       -0.03492872 0.032404624 0.07094899 -0.0036041357
0003b0 14 a3 25 bd 03 72 16 bd a7 dd 0a 3d 5a 07 a2 bd
       -0.040438727 -0.036729824 0.03390279 -0.079115584
0003c0 ba ea 8c 3d 6e a2 bb 3d 74 4a 28 bd f4 10 a0 bc
       0.06880708 0.091618404 -0.04108663 -0.019539334
0003d0 d4 fd 69 bc 75 12 55 3c 11 6d 72 bc e1 90 95 3c
       -0.014281709 0.013004889 -0.014796511 0.01825756
0003e0 99 6a 2c bd 9a 9c c3 3a 12 2f 60 bd 99 4d b1 3c
       -0.042093847 0.001492399 -0.05473239 0.021643447
0003f0 33 8e b9 3c 45 c6 e2 3d 2f d0 63 3d c6 dd 42 bd
       0.022650814 0.11072973 0.05561846 -0.04757478

action_model._discrete_distribution.branches.0.bias f4 [2]
000000 e7 b8 7d bc e5 b8 7d 3c
       -0.015485979 0.015485977

action_model._discrete_distribution.branches.1.weight f4 [3, 256]
000000 af 84 a7 bd ef 92 7d bc 33 ce 10 3c 40 97 0d bc
       -0.08179604 -0.015476926 0.008838224 -0.008642018
000010 2d 59 d1 bb 8a a8 b4 3c e3 b0 4d 3c 59 4b 0d bd
       -0.0063888044 0.022053022 0.01255438 -0.034495685
000020 b2 29 81 3c ce be 09 bd 9c 49 de 3c 40 2a 56 bd
       0.015766952 -0.03362923 0.027134709 -0.052286386
000030 d6 59 95 bc ae fc 19 3d b4 36 e0 bc 30 df f2 bc
       -0.018231314 0.03759449 -0.027369834 -0.02964744
000040 d9 d4 39 bd 30 0b 14 3b d6 67 8a bd d7 56 17 bd
       -0.045369003 0.0022589676 -0.067580864 -0.03694805
000050 25 c7 7b bc e6 c8 35 3c 72 df be bc 00 53 e4 bb
       -0.015367304 0.011095261 -0.023299906 -0.006967902
000060 cc ff 8f 3d 2f 69 41 3d 89 f9 55 bc e9 f3 23 3d
       0.07031211 0.04721945 -0.013059982 0.040027533
000070 d8 fe 84 ba 84 73 05 bd ad 6c 00 3c 77 02 19 bd
       -0.001014675 -0.032580867 0.00783841 -0.037355866
000080 05 cf 18 bc b2 a3 62 bc ad 93 65 3d a0 95 90 bd
       -0.009326701 -0.013832973 0.056049038 -0.07059789
000090 4f 59 b7 3d 89 b5 73 bd e5 fe 5d bd 96 66 01 bd
       0.08952581 -0.059499297 -0.054198164 -0.031591974
0000a0 1a 0f d7 3b 89 39 10 bd 1a 42 db 3c aa 91 49 bd
       0.0065630795 -0.03521112 0.026764918 -0.04921118
0000b0 5d 4d 00 3c c0 d1 aa bc 57 09 bc 3c 2d 1f 56 3d
       0.007830945 -0.02085197 0.022953672 0.052275825
0000c0 47 50 10 3c 6b 8b ec bc c9 c0 31 bc 53 2d 4c bd
       0.008808202 -0.028875073 -0.010849186 -0.049847912
0000d0 b4 08 4a 3d eb b7 9a 3d 2c f8 63 3d cb 28 c3 bc
       0.049324706 0.07554611 0.055656597 -0.023823163
0000e0 6f 02 3a bd 6a ea 42 3d ad c9 f9 bc cf a1 48 bd
       -0.045412477 0.047586836 -0.030491674 -0.048982438
0000f0 17 8b 19 3d 6a 3d d5 3c 3c cf 17 3d f0 61 9b bd
       0.037486162 0.026030261 0.03706287 -0.075870395
000100 31 d5 fc bc 96 c2 29 3d 26 81 7e 3b 5c 4e fb bb
       -0.030863376 0.041445337 0.0038834303 -0.0076692533
000110 c5 6a a5 bd 61 d5 84 3b 41 1c 41 3d 82 56 f5 3c
       -0.08077005 0.004053757 0.047146086 0.029948477
000120 c8 b3 d8 3a 7e 6a 45 3d 9c 18 08 bd c5 c7 1c bd
       0.0016533071 0.048197262 -0.033226594 -0.038276453
000130 f8 61 05 bc f4 a3 48 bd 48 e7 9c bd 21 42 81 bd
       -0.008141033 -0.048984483 -0.07661301 -0.06311441
000140 bf ba be bc 63 96 5e 3c c0 30 48 bd b6 0e 54 bd
       -0.023282407 0.01358566 -0.048874617 -0.051771842
000150 58 af 97 bc 7d 54 d3 bc 50 96 3d bd 2e eb 8c bd
       -0.018516228 -0.025797123 -0.046285927 -0.068807945
000160 50 98 8e bc e7 f9 97 3c 10 d4 5c 3d 43 3e a1 bc
       -0.017406613 0.01855178 0.053913176 -0.019683009
000170 5d 09 35 bd 2a f9 38 b9 b7 94 e8 bc 5d 76 81 bd
       -0.044198383 -0.00017640428 -0.028391225 -0.06321404
000180 b6 42 17 bd 30 d2 48 bd 8e ce c8 bc 33 eb e2 bc
       -0.036928855 -0.049028575 -0.024512555 -0.027700042
000190 7e e1 d7 3c f4 19 05 3d ca 72 43 bd d5 1a ce bc
       0.02635264 0.032495454 -0.047716893 -0.025159279
0001a0 7d c1 1b 3d 14 44 b9 3c e3 0b 31 3c f2 09 63 3d
       0.03802632 0.02261547 0.010806057 0.055429406
0001b0 d6 26 4a ba f1 b8 32 bc cb 29 d5 bc 8c d5 09 3d
       -0.00077114755 -0.010908351 -0.026020905 0.03365092
0001c0 9d b5 75 3c 90 c4 3c bd 20 ae c3 bd aa 31 4b 3c
       0.014996913 -0.046085894 -0.09554696 0.012401978
0001d0 bf 68 74 3d 01 d2 89 bb eb 7c 90 bc dc b2 8f 3a
       0.059670206 -0.0042059426 -0.01763769 0.0010963338
0001e0 22 42 cf 3c 57 15 e5 3c b3 7c ad 3d 38 57 1f bd
       0.02530009 0.027964277 0.0847105 -0.038901538
0001f0 f3 6b 66 3c 3d 1f 86 3c 8a 6b 14 3d 46 79 a0 bc
       0.014063823 0.016372317 0.03623537 -0.019589078
000200 25 65 65 bb 2c 8f b1 bc 26 4e 71 bd 25 28 7b bd
       -0.0035002914 -0.021674715 -0.05891242 -0.06131758
000210 10 49 8e bc c7 d7 2a bc 92 3b 93 bd 31 d1 31 bc
       -0.017368823 -0.010427422 -0.071890965 -0.010853098
000220 fe 66 14 3c af 23 6d bd 61 21 16 bd 68 80 5d bc
       0.009057758 -0.05789536 -0.036652926 -0.013519384
000230 a7 a8 96 bc ba 98 8c bc a8 40 4f 3d 91 f2 18 bd
       -0.018390967 -0.01716267 0.05059877 -0.037340704
000240 98 31 f0 3c 70 48 b0 bb 84 34 3b bd 59 ca dc 3d
       0.029320523 -0.005379729 -0.04570438 0.10780782
000250 e5 3e 35 bd 15 2b 2f 3d 7e 5c 4c 3d 0c b5 6a bd
       -0.044249434 0.042765696 0.049892895 -0.057301566
000260 d6 fd b4 bc 97 02 f4 bc bd 68 45 bd 9c b0 8c bc
       -0.022093695 -0.029786391 -0.04819559 -0.017174058
000270 17 e8 1d bd 8c 50 02 3d c6 16 1a 3d e8 a5 da 3c
       -0.038551416 0.031815097 0.037619375 0.026690438
000280 21 74 9a bd a4 96 19 bd dd 69 5a 3c 8f 57 de bc
       -0.07541681 -0.037497178 0.013330904 -0.02714136
000290 ad 54 83 bd 25 12 9b bc 4f 05 9f bd be c9 83 bc
       -0.06412635 -0.01892955 -0.077646844 -0.01608741
0002a0 4d 29 2e bd 8c 46 5a 3d 25 6c a4 3d a9 6b 32 bd
       -0.042519856 0.053289935 0.080284394 -0.043559704
0002b0 21 f2 e3 39 ad 9d 83 3b 90 c7 39 bd 7a 9c 87 bc
       0.00043477214 0.004016599 -0.045356333 -0.016554106
0002c0 12 89 ff bc 2f aa 2b 3d cf 96 41 bc 72 10 57 3d
       -0.03119329 0.041910347 -0.011815741 0.052505918
0002d0 70 69 b7 3d 0f 87 c8 bc 02 cb fd bc bd 1b 04 bd
       0.089556575 -0.024478463 -0.03098059 -0.032253016
0002e0 41 fb 07 b9 4e 43 40 bd 38 4f ee bc 73 4a 4c bc
       -0.00012968203 -0.046939187 -0.029090509 -0.012468922
0002f0 8d cd 72 3d 63 c6 f4 3c c5 92 0a 3d f1 ee f8 3c
       0.05927806 0.029879754 0.033831377 0.030387374
000300 5e 3c ac 3c b7 67 09 bc e3 2a 78 bd fe db 90 bd
       0.021024879 -0.008386544 -0.060587775 -0.0707321
000310 65 01 8f 3c e7 f2 43 3d ec 3c 0d bd 2f 0f af 3c
       0.01745672 0.04783907 -0.034481928 0.021369545
000320 d6 00 f9 bc d8 a6 80 3c 38 a0 39 3d b3 e4 4c bd
       -0.030395906 0.015704557 0.045318812 -0.050022792
000330 ab 08 fd 3b 7c f2 4e 3d c0 b5 bb bc 8d 0b 39 bd
       0.0077219806 0.05052422 -0.022913814 -0.04517703
000340 f2 ca 18 bd cf ab ef bc bb 6c 6c 3d e9 74 d9 3c
       -0.03730292 -0.02925673 0.05772088 0.026545005
000350 3e 1a 87 bc 4b f7 a2 bc 42 3c 2c bd dc 64 64 bd
       -0.016492005 -0.01989331 -0.042049654 -0.05576025
000360 5c 67 4a bc 3f a7 da 3c 8e 10 0f bd 09 6d 25 3d
       -0.012353744 0.026691077 -0.034927897 0.040387187
000370 34 4b 76 3c 32 e9 bb bc 77 71 a7 bc 59 cf 84 3d
       0.015032578 -0.022938345 -0.020439846 0.06484861
000380 77 a1 f7 bc 81 bd 11 bd 55 95 74 ba 4d ac 95 3c
       -0.03022836 -0.035581116 -0.00093301135 0.018270636
000390 90 a9 a8 bd e8 1c 08 bd 54 55 05 bd 7e ca 98 3b
       -0.082354665 -0.033230692 -0.03255208 0.004662811
0003a0 44 22 86 3d 79 69 d8 bc 27 81 3e bd f1 4c bc bd
       0.065495044 -0.02641748 -0.046509888 -0.09194363
0003b0 d2 02 96 3c 19 94 b7 3d 71 79 d3 3c bc b0 86 3d
       0.018311892 0.08963794 0.025814744 0.06576678
0003c0 0e bc 4c bd 93 44 95 bd d2 e9 ac bb f6 05 16 bc
       -0.04998403 -0.0728847 -0.005276897 -0.009156695
0003d0 f2 22 aa bc a6 ec 6a bd d5 8a 64 3d b1 95 c4 bb
       -0.020768616 -0.05735459 0.055796463 -0.00599929
0003e0 06 e0 8c 3c 1a 8a 87 3d 62 10 37 3d 69 c0 b7 bc
       0.017196666 0.06618138 0.04469336 -0.022430615
0003f0 5c 99 48 3d e1 8a 6b bc 8e a0 b4 bd 82 5a 14 3d
       0.04897438 -0.014376373 -0.08819686 0.036219127

action_model._discrete_distribution.branches.1.bias f4 [3]
000000 1c 88 a3 bc cc 72 e7 3c c7 ec 32 bc
       -0.019962363 0.028252982 -0.01092071
