Assets/NNmodels/Collector_sac-922181.onnx (onnx, 334075 bytes, 9 tensors)

discrete_act_size_vector f4 [1, 2]
00000000: 0000 0040 0000 4040
2.0 3.0

network_body._body_endoder.seq_layers.0.weight f4 [256, 60]
00000000: 3829 303e f17f 3e3f dde8 d6be dfb8 ccbe
00000010: cbe9 533e 7185 19be 8cfb 9abd a68c 953e
00000020: 5c05 55be dfe7 1cbe bd35 83be 4f38 da3e
00000030: 64de 9abe c8e5 ee3d d0ec a0be f1b0 d4be
00000040: 83d6 303e fd2d 173e cc4f 6c3e 55e4 3abe
00000050: a4ac bebe e68f c3be f275 bc3c 92f8 b83e
00000060: 13f7 80bd 301f 62be 3157 15be 034d ddbd
00000070: d33a b4bc b8d0 f23c a50d 903e 7599 dfbe
00000080: b1b8 3dbe 4d67 c7be 23d9 06bd 6b75 bb3e
00000090: 3ade 173e 8658 e03c 709e 1c3e ae2c 09bf
000000a0: cd0c 113b 12f1 2f3e 1010 6dbd 3dde 96bd
000000b0: 9d22 27be 9985 e53b 8546 b43c 1ac4 ac3d
000000c0: 5afa 3d3d 59a5 9cbe 12c6 e33c 1f90 ed3c
000000d0: f655 02be dad9 78be 9969 6b3c 49a3 933e
000000e0: 9a8d 55be 2f7e f5bd 020a 38bd 265e 563d
000000f0: cfcd d13d dedf 1b3e 99e4 873e da1c 29be
00000100: 7514 0fbe 5da6 b0be 415c 553e adf6 24be
00000110: 21bc 86bc 64f1 0abd 32a0 093d c380 1c3e
00000120: 14ca 853d dcd1 1cbe 23e3 0cbe 7a69 46be
00000130: a1a4 efbd 2b61 40be 6bd4 3e3d a2a2 393e
00000140: 9c7d 23be 037d 0e3f 82e4 b7bd 4666 7cbe
00000150: 2413 febe 06a4 ee3d 5d32 493c 79ff a03e
00000160: bc65 143e ff54 25bc f060 e0bc f609 a5be
00000170: c36d 31be 27bf 533d 6312 553e 4b01 89be
00000180: c2bc 95be 8555 893e f16d 663e 1142 923e
00000190: ab59 6f3e 7912 323e 7174 6f3e e02a db3e
000001a0: 57e9 19bf 041b 3abd 4e47 08bc 1470 a23e
000001b0: efc9 fd3a d5c8 e2ba 73ca adbe 757f 2ebe
000001c0: 5883 78be a413 47bd a65c 64be add3 43bd
000001d0: 801c a43e ffb4 393d af19 e7bd e332 9dbc
000001e0: 2c71 ad3d ac48 ef3e bd1c 3bbe d93a 16bf
000001f0: 00e7 8b3e 71e9 6b3e 4d40 cd3e dfef 8fbe
00000200: f36f a6be 5a56 9abe c049 f6be 8457 663e
00000210: ea4c aebe b238 ea3e 0ad3 1e3e 96e0 ea3e
00000220: dae0 c1bd b1dc 9fbe 46d5 a13e b406 26be
00000230: 5835 af3d 56ca 97be 268a 11bf b92b 153e
00000240: 03c7 b63d 7d12 803e ead4 2fbd 6867 20be
00000250: 8956 0fbe a36a 723e 3645 0f3e 7fef b3be
00000260: 89bb 53bc 6bf2 0abd 0bd1 dabc 96bb 853d
00000270: be2a 05be 88ce c63e 23a0 2439 8523 e53c
00000280: d818 cd3e b8f4 c83d 1b93 28be e12c 95be
00000290: dc28 8f3d 9129 753d 3fb0 543c 33d4 0f3e
000002a0: fce2 eebd 0bce 98be 357a c23c 7ad1 783e
000002b0: b4d9 103c a791 1a3e 8f48 2f3e a824 98be
000002c0: 6593 3ebe 0213 3b3c 57a4 ecbb 912b 163d
000002d0: 6362 913d 3e7f 8d3e bd44 c33e 5184 093d
000002e0: 0c39 763e 6853 51be 337d 0d3f e4c2 c3be
000002f0: bb7d 0b3d 8698 153c 7c2b fabb 68f6 abbe
00000300: 7f9a 2fbe f9e4 10bf 3357 91be 95bf 153e
00000310: 965b 873e 9495 77bd 65c0 573e 7387 8bbd
00000320: 60e9 9fbd e1ab 1cbf 3ba4 d2bd 885e b5be
00000330: 0ac7 10be dcf3 313e 77c8 853e f283 6f3e
00000340: a76c 9d3e 829d 83bd 4266 003e 31e8 69be
00000350: 92e4 443e b32d 57be 80e2 0f3c e2c6 543e
00000360: 9b64 903d d854 ef3d 8525 b93e 5122 253f
00000370: 7ed2 b13e 18e7 133e 6627 93be a91d 51be
00000380: 2082 46bd beb0 223e 5a69 ee3d f17b 993c
00000390: 63c8 cbbe b225 14be ba09 de3d 5440 c6be
000003a0: 30cf ffbc 96d6 73bd 9eb5 663e 42d6 fa3c
000003b0: 3c21 07bd cdb5 9c3d 1481 ac3c b9e1 013e
000003c0: c948 44be 449d 7f3c ddde 213e caf3 e4bc
000003d0: 54e0 96be 6f77 4ebe c777 8abe e1e4 b53e
000003e0: 8c57 92be 5a2a d0be 1bbf 92bd 4f6d 2a3e
000003f0: 8e6e 21bd e21d 803e d7b3 f93e d004 153f
0.17203224 0.74413973 -0.41974536 -0.39984795 0.20694654 -0.1499231 -0.0756751 0.2920887
-0.20802826 -0.15322827 -0.25626937 0.42621085 -0.30247796 0.11664921 -0.31430674 -0.41541246
0.1726933 0.14763637 0.23077315 -0.18251164 -0.3724109 -0.38195723 0.02300546 0.36127144
-0.06297126 -0.2208221 -0.14584042 -0.108057044 -0.022000706 0.02964054 0.2813541 -0.43671766
-0.18527485 -0.38946 -0.03292192 0.3661302 0.14830866 0.027385961 0.15294814 -0.535838
0.0022132874 0.17181805 -0.057876647 -0.07366607 -0.16321798 0.0070044515 0.022006283 0.08435841
0.046381332 -0.305949 0.027804408 0.028999386 -0.12728104 -0.24301854 0.014368438 0.28835514
-0.20854798 -0.11986958 -0.04493142 0.05233588 0.10244333 0.15222117 0.26541594 -0.16514912
-0.13972647 -0.34501925 0.20835973 -0.16109724 -0.016447129 -0.033921614 0.03360004 0.15283494
0.06532684 -0.1531443 -0.13758521 -0.19376174 -0.11701322 -0.18787067 0.046589296 0.18128446
-0.15965885 0.556595 -0.08979131 -0.24648389 -0.49623978 0.11652379 0.012280074 0.3144491
0.14491934 -0.010091065 -0.027389973 -0.32234162 -0.17327027 0.05169597 0.20807795 -0.267588
-0.29245573 0.2682306 0.22502877 0.2856603 0.2337405 0.1738986 0.23384263 0.4280615
-0.60121673 -0.04543592 -0.008317782 0.31726134 0.0019362549 -0.0017302284 -0.3394352 -0.17040808
-0.24268854 -0.048602715 -0.22300968 -0.04780929 0.32052994 0.045338627 -0.11284196 -0.019189304
0.084688514 0.46735132 -0.18272682 -0.58683544 0.27324677 0.2303827 0.4008812 -0.28112695
-0.32507285 -0.30144006 -0.48103142 0.22494322 -0.34043056 0.4574638 0.15510193 0.4587447
-0.09466715 -0.31223062 0.31608027 -0.16213495 0.085550964 -0.29646558 -0.5685142 0.1456746
0.08924677 0.25014105 -0.04292766 -0.15664446 -0.13997854 0.23673491 0.13991246 -0.3514366
-0.01292313 -0.033922594 -0.026711008 0.0652992 -0.13004586 0.38829446 0.00015699914 0.027971039
0.40058017 0.098123014 -0.16462366 -0.29135802 0.06990215 0.059854094 0.0129814735 0.14045791
-0.116643876 -0.29844698 0.023739913 0.24298659 0.008840967 0.15094624 0.17117523 -0.29715466
-0.18610914 0.011418106 -0.0072217393 0.036662642 0.07098844 0.2763614 0.3813838 0.033573452
0.24045199 -0.20441973 0.55269164 -0.38234627 0.034055453 0.009130603 -0.0076345783 -0.3358643
-0.1714878 -0.56599385 -0.2838684 0.14623864 0.26437062 -0.060445383 0.21069486 -0.06812944
-0.078081846 -0.61199766 -0.10285231 -0.35423684 -0.14138427 0.17378181 0.26129505 0.23390177
0.30746958 -0.064265266 0.12539008 -0.2284248 0.19227818 -0.21013527 0.008782029 0.20778993
0.07050439 0.116861045 0.36161438 0.6450549 0.34730905 0.14443624 -0.28740996 -0.2042147
-0.04846394 0.15887734 0.11641188 0.018735858 -0.3980132 -0.14467505 0.10841699 -0.38720953
-0.031226724 -0.059530817 0.22530219 0.030619744 -0.03299068 0.07651863 0.021057643 0.12683763
-0.1916839 0.01560146 0.15807672 -0.027948279 -0.29468024 -0.20162748 -0.27044508 0.35526183
-0.28582418 -0.40657312 -0.07165357 0.1664326 -0.039412074 0.250228 0.4877002 0.5821047

network_body._body_endoder.seq_layers.0.bias f4 [256]
00000000: 0f76 9dbd 3a47 b43d b2a9 d9bc ce21 7c3c
00000010: ed6d 60bc b870 373c 93e6 e33d 3e77 693d
00000020: 4b20 bb3d 689b c83b 9a8a 853d 950d d63d
00000030: 99e7 3c3d 0ac2 123d 7ba4 ca3d b4ca 39bd
00000040: c71d 123e 8c3b da3d 9eb8 26bd 9cc3 27bd
00000050: 2b15 06be 1630 19be 60a9 39bc b51d 7cbe
00000060: b5ef 383e 55af 6fbd b83b 63bd 9f5b 18bd
00000070: a1b3 fc3c 41a6 21bd 0ead eebd 19b3 46bb
00000080: cb8e e5bd 6c1e 2b3d 1c35 7dbd a78b 1d3d
00000090: 3e50 3c3d af43 413d 84eb 893d e13a 1b3e
000000a0: b3bb 5a3d b24c c3bd aa50 a3be 6d94 443d
000000b0: ed28 a63d 763e c43c 6ab6 22bc c8e2 853c
000000c0: 1954 95bd b4dc 35bd 03fe 5b3d 399d a93a
000000d0: 5e5f 233d e4e7 81bb 0eb2 3fbd 11f5 9d3d
000000e0: df1f f53d 90c9 073e 1a24 d33d 1aa7 9c3d
000000f0: 27d0 0f3e 8cad a33d 32f7 003e d726 543b
00000100: 3905 203e eee6 0a3d ede0 8fbe 0731 803d
00000110: a567 9cbd 5d8b 1cbc 75cb 183d a258 2dbd
00000120: 8c22 2abe 79f9 913d d175 6bbc 3f6d 22ba
00000130: 82bc 183d bfcd 40bd bcf2 be3d 0d1f ec3d
00000140: 0d00 7cbd 5284 85bd b899 a73d 4e85 59be
00000150: bb8f 353e ebb0 643d e4bf 163d 0df8 7d3d
00000160: de46 563d ac66 e9bc b6dd 4cbd 9009 c2bd
00000170: b9c4 e13c 83f7 ed3c 0bbf fdbc cca9 013e
00000180: 69e0 a73c 38ac 43be bab0 1d3c ef10 69bd
00000190: fea8 73bb ee34 58bd 4115 e1bd 3a1d 90bc
000001a0: b7e2 da3d bd9f e33d e591 113d 266f aabd
000001b0: 855a cd3d 7051 b93c 713d 48bc 1a39 25bc
000001c0: f055 643b 9a6d 503d 80d8 0cbd af89 4a3d
000001d0: 8794 103e fbb6 77bd d404 c53c 8a38 97bd
000001e0: 2f68 273e 3214 cdbd 7bc4 dbbb 4187 b8bc
000001f0: c980 24bd 9e5a ae3d 01b8 a93c 1b77 20be
00000200: 31c0 013e 6f31 cdbd 244e efbd 5f43 2f3e
00000210: 825f d9bc cad1 34bc 9a9f c43d 0119 67bc
00000220: 1e7c bcb9 dc16 e43b 683d 82bd 034d 74bd
00000230: 5273 183d 6d83 5bbd de14 2cbe af34 41bd
00000240: 1c22 22be e205 2abd 20ac 91be 68a3 4fbb
00000250: bcbb e9bc 9495 2fbd d356 043e 33b1 a43d
00000260: 8cf1 1bbe 4001 c63b aaa6 6b3d bd4c 1c3d
00000270: d5b3 2c3d 9dc1 cb3d 5c71 46bd 2646 76bd
00000280: b8bc 7abc a9d0 673d fe8b 363c 8f0d 4a3e
00000290: 1429 1d3c af58 e53c 4bf8 2ebd b92e 223d
000002a0: 0761 3abb 94d7 08bd 58b4 72bb 36e0 193e
000002b0: 2639 833c c976 d83c 34d7 a63d 435a a5bd
000002c0: 10c7 ae3d 0ded 1ebd 930e ce3d 104f 983d
000002d0: fd2b 473d fd16 c53d 9ce0 d8bd fdef 5fbe
000002e0: 988c 68bc 5b97 78bd 1793 bb3d 2ea2 60be
000002f0: 0c27 92bd 3cbb d0bb 8d8e 8a3d 2af6 093d
00000300: 0153 a0bd 2b66 2c3d 0137 bd3b 9e8a 00be
00000310: 0bd1 c2bd 27e9 c8bb 96d4 cfbd 47cc 3ebe
00000320: 5ee3 dabc 09de 823c 26ac 1abd 2544 61bd
00000330: c387 82bb f86a 063e 69c0 3c3d 3221 7a3d
00000340: 9ed9 0dbc 77e5 9c3c b2c0 2ebc 8885 f1bc
00000350: d51d 4fbd 2d90 4e3d da2a 1cbc 440b 1fba
00000360: af78 fe3c 672b 083c d99c 4e3c 3201 2e3b
00000370: 90ac 0fbc 507d abbc 988c 97bd 064b 663c
00000380: 8685 dc3c 2c9c d13d bb1d 043d 6046 2abd
00000390: 3d8f 2c3d 4843 22bd 288b 9fbd f369 693d
000003a0: fd9e ce3a 3cba ba3d 28d9 57be dbe6 54bd
000003b0: 42f1 31bd 4859 a83d 8b75 253d d774 ebbc
000003c0: 56d6 2e3d 6252 da3b caf4 753d e36b d23d
000003d0: adf1 c13d b7b5 3abd 6126 45bc 54cd acb6
000003e0: 9e31 e83c fb52 e63d 71d0 cdbd c02d fe3b
000003f0: f514 8b3c 6a3d 703c 3b11 113e 0b17 ea3c
-0.076885335 0.08802648 -0.026570175 0.015388919 -0.013698083 0.011196308 0.11127963 0.056998484
0.09137019 0.0061220415 0.06520577 0.10451809 0.046119306 0.03582958 0.098946534 -0.04535933
0.14269172 0.10655889 -0.04070341 -0.040958032 -0.13094012 -0.1495975 -0.011331886 -0.24620707
0.18060191 -0.05851682 -0.055476874 -0.03719675 0.030847372 -0.039465193 -0.11654101 -0.0030319153
-0.11208876 0.04177706 -0.061818227 0.03846326 0.045974962 0.04718369 0.06734374 0.1515918
0.05340166 -0.09536113 -0.3189748 0.047993112 0.08113275 0.023955565 -0.009931186 0.01634349
-0.07291431 -0.044399932 0.05370904 0.0012940533 0.03988587 -0.003964411 -0.046800666 0.07712758
0.119689696 0.13260484 0.1030962 0.076490596 0.14044248 0.07992086 0.12594298 0.0032371783
0.15626992 0.033911638 -0.28101292 0.06259351 -0.07636956 -0.009554711 0.037303407 -0.042320855
-0.16614741 0.07127661 -0.014371351 -0.00061960885 0.03728915 -0.047071215 0.09323642 0.1152936
-0.061523486 -0.06519379 0.081836164 -0.21242258 0.1773061 0.055832785 0.036804095 0.062004138
0.052313678 -0.02849134 -0.050016128 -0.0947448 0.027559625 0.029048687 -0.030974885 0.12662429
0.02049275 -0.19108665 0.009624654 -0.056900915 -0.0037179585 -0.052784853 -0.10990382 -0.017592061
0.10687774 0.11114452 0.035539526 -0.08321981 0.10027031 0.02262184 -0.01222168 -0.010084415
0.0034841262 0.050885774 -0.034386158 0.04944771 0.14119159 -0.06047724 0.024050154 -0.07383831
0.16348337 -0.100136176 -0.006706772 -0.022525432 -0.04016188 0.085133776 0.020717623 -0.15670435
0.12670971 -0.10019194 -0.11684826 0.17115544 -0.0265348 -0.011036346 0.09600754 -0.0141050825
-0.0003595063 0.006960733 -0.063593686 -0.059643757 0.037219353 -0.053592134 -0.16804835 -0.047169384
-0.15833324 -0.041509517 -0.28451633 -0.003168309 -0.028531902 -0.04286726 0.12923746 0.080416106
-0.15228862 0.0060426295 0.05753199 0.03815912 0.04216369 0.09949038 -0.04844795 -0.060125493
-0.015303783 0.05659548 0.011141775 0.19731735 0.009592313 0.02799639 -0.04271726 0.03959534
-0.002843918 -0.033408716 -0.0037033763 0.15026936 0.016018461 0.026423829 0.081465155 -0.08073857
0.08534062 -0.038800288 0.100613736 0.07436955 0.048625935 0.09623525 -0.10589716 -0.21868892
-0.014193676 -0.06069122 0.091589145 -0.21936867 -0.07136354 -0.0063699763 0.06765471 0.033682026
-0.07828332 0.042089622 0.0057743792 -0.12552878 -0.09512528 -0.0061313096 -0.101479694 -0.18632613
-0.026719745 0.015975015 -0.03776183 -0.05499663 -0.003983469 0.13126743 0.046081934 0.061066814
-0.008657841 0.019152386 -0.010666059 -0.029482618 -0.05056556 0.050430465 -0.009531701 -0.00060670474
0.031063406 0.008311129 0.012610638 0.0026551005 -0.008769169 -0.020933777 -0.07399863 0.014055973
0.026919138 0.102348655 0.032254916 -0.04157102 0.04212879 -0.039614946 -0.07790214 0.056985807
0.0015763935 0.09117553 -0.21078932 -0.051977973 -0.043442972 0.08220154 0.0403953 -0.028742237
0.042684875 0.006662653 0.060047902 0.10274484 0.09469924 -0.045583453 -0.012033076 -5.149903e-06
0.028343972 0.11246296 -0.10049523 0.0077569187 0.016977767 0.01466308 0.14166729 0.02857544

network_body._body_endoder.seq_layers.2.weight f4 [256, 256]
00000000: 2c05 fabd 4aff ecbd 05d5 00bd 58ff f7bd
00000010: da79 583e 1ee2 22be 02cc 2dbe f947 333e
00000020: 12e3 aa3d 4c60 a13d 54ed c63d 4856 2e3e
00000030: fd13 5f3c bb94 e8bd 2071 3fbe 7db4 56be
00000040: dfff 11be 5cf2 493c 3aa0 47bd d4c0 0fbe
00000050: 478d c0bd 0cf8 95bd 9860 fd3d 9c6a ebbd
00000060: a5a5 133e f152 96be eb5f 67bc f895 b53c
00000070: 1ddf 84bd 8517 0d3e 9044 203d 6587 adbd
00000080: 906d 5b3d ab84 65be 9815 e83d c25b 1dbe
00000090: 4d06 4fbe ecd9 3b3e 1eb1 2d3e cad9 c53d
000000a0: 44be abbd a42f d03d 4781 5abd 819c 1e3e
000000b0: ddb9 4abe 642a 9b3d c28b 763e 23ae 81bd
000000c0: b12a 6f3e 4e8e 283e 4420 163d 5232 e63c
000000d0: a509 b83d e8b6 45bd 4112 b03d bd4b 7d3d
000000e0: a392 39be 714a 383e a0ca ea3c a95b d8bd
000000f0: 9dad a13d 45a9 3ebd f4fb 81be 48cf faba
00000100: c672 8d3e 9ccf 22be d92f 3cbc 5ff4 7bbe
00000110: 0a71 75bd 5f0b 00bf 565c 9b3e a9db f5ba
00000120: bcf7 963c 2356 483e 753d 64bd 9a56 573e
00000130: 4ce1 18be 214e 163e e00b 583e 609b 013d
00000140: 6524 65bd 593e 2cbe 94e1 aebc b4f4 41be
00000150: 8e94 e8bd 9536 a3bc b9d5 4abd 183f 113d
00000160: dc35 a6be d91d 653d 1220 853d 676c babd
00000170: d42d cfbc 7f77 ccbd ddb7 463d 5366 92bb
00000180: 9a54 a1bd e2cc 3bbe 4352 8f3e 5243 fa3d
00000190: 1e9a 113e a893 debd 491b febd b7d8 cabd
000001a0: 5130 abbd 6ef2 92bd 9d7e e73d 4f08 b2bb
000001b0: 35d2 f33d fd14 9cbe 887b a0bd 6d2b 93bd
000001c0: b780 903e cbd9 41bd aba6 7e3c f9d0 d73c
000001d0: d838 843e bc03 28be 919b d13e 6835 89bd
000001e0: 600a b23c 2506 e339 e553 e23d 3a5b 9f3d
000001f0: 3152 93bd 8d37 c03d 8244 4fbd 1c6d 5fbe
00000200: 1441 2fbe 50c9 cfbd c39d 4cbe 1c81 5b3e
00000210: c546 98be 3b94 083e e0e0 d9bc 91c6 be3d
00000220: 145b 44be 646b 193d fc8e 0bbd 16cb 6ebd
00000230: e36d 6fbd 8b62 05be 3500 f4bd 442b 9fbd
00000240: 92bb 4abd f0dd c9bd 5b91 06be ccf2 9dbd
00000250: 4600 ea3c 4d10 ebbd 8dd0 823e aea9 92be
00000260: 4520 d43e 65b4 8c3d d488 023d 3575 04bd
00000270: b99e 75be 24f7 0bbe f3ad e2bd 97ab 21be
00000280: ceb2 a83d 48de b4bd da2e 803c 898f 46bc
00000290: da1f 5b3e b9eb 1cbe 333b b73d 43ac 32bd
000002a0: 838f ba3e 3ec2 603e 3c77 92bd 942f a0bd
000002b0: 15cd cabe 641e 613e 9332 bbbd 2767 3dbe
000002c0: a077 6abe c1c9 97bd 2593 54bd 483a 66be
000002d0: 9abb 24be db61 4c3d 6fbe 77be 15d5 93bd
000002e0: e476 9bbb bc28 14bc adf1 ca3d 5804 b6bd
000002f0: 1ff6 5b3e f3af 2e3e e6b5 023e 2be3 6d3d
00000300: 33c4 8e3d 76f2 a83c 642a 043d 4e30 8b3d
00000310: bac6 dfbd c1f3 0bbe 3851 39bd 2de3 3fbd
00000320: 5a44 30be 1d00 3cbe 1caa 2f3e 6fa0 4ebd
00000330: 7491 52be d17a 413e aad3 84bc 60d7 6fbe
00000340: 701e e63d 7f1a f93d 46d0 4dbe cd8c e13c
00000350: 1f1e 033e 4b83 303d 630f 703d a840 813e
00000360: aedb 43be def3 bf3d 23cf 34bd 3658 0ebd
00000370: 0880 803c 76e1 923a ab59 14be 75c6 debd
00000380: 0075 3cbe 5451 963e 3a3e 18be 017d 903a
00000390: 22fa 933d 189d cbbe 96d2 fdbc 1dcc f33d
000003a0: 3a03 25bd 13c5 90be dde2 6cbd 6494 223d
000003b0: 5181 f63c 4ee9 62be 01a8 153e f6a7 2d3c
000003c0: 50bc 00bd 07b7 f1bd 9644 51bb 1b9a fe3d
000003d0: a12c 2abe 4478 f43c ed2d 5f3e 7892 50bd
000003e0: 2a3c 173e a94c 6d3d d164 febd d496 1a3e
000003f0: 7b67 6f3e f6b9 ecbd 1682 293e 8d91 cfbd
-0.12208018 -0.1157213 -0.03145315 -0.1210925 0.21140233 -0.1590657 -0.16972354 0.17507924
0.083440915 0.07879695 0.097132355 0.17025101 0.013615605 -0.11356493 -0.18695498 -0.20967288
-0.14257763 0.012325849 -0.04873679 -0.14038402 -0.094019465 -0.07322702 0.123719394 -0.114949435
0.14418657 -0.29360154 -0.01412199 0.022166237 -0.06487868 0.13778503 0.039127886 -0.0847309
0.053571284 -0.2241389 0.11332244 -0.15367034 -0.20217247 0.1834485 0.16962096 0.096606806
-0.083859 0.10165337 -0.053345945 0.15489389 -0.19797464 0.07576445 0.24076751 -0.06332042
0.23356129 0.16460535 0.036651865 0.028100166 0.089862145 -0.048270136 0.08597232 0.061839808
-0.18122344 0.17997147 0.028661072 -0.10564358 0.07894442 -0.046548147 -0.25387537 -0.0019135261
0.27626628 -0.15899509 -0.011486017 -0.24604939 -0.059922256 -0.5001735 0.30343884 -0.001875748
0.018428676 0.19564109 -0.055722672 0.2102913 -0.14929694 0.14678241 0.2109828 0.031642318
-0.05594291 -0.16820659 -0.021347798 -0.18941003 -0.113564596 -0.019923488 -0.049520228 0.03546056
-0.32462966 0.055936668 0.065002576 -0.09102707 -0.025290407 -0.099837296 0.04851519 -0.0044677644
-0.078774646 -0.18339875 0.27992448 0.122198716 0.14218947 -0.10868007 -0.12407548 -0.09904616
-0.08358825 -0.07175146 0.113034464 -0.0054331194 0.11905328 -0.30484763 -0.07836062 -0.07186017
0.28223202 -0.047326844 0.015542666 0.026344763 0.25824618 -0.16407675 0.40939 -0.066996396
0.021733463 0.00043301392 0.11051158 0.07781072 -0.07193411 0.093855955 -0.050602444 -0.21818966
-0.17114669 -0.10145819 -0.19982056 0.2143597 -0.29741493 0.13337795 -0.026596487 0.09315217
-0.19175369 0.03745593 -0.034071907 -0.058299147 -0.058454406 -0.13025872 -0.11914102 -0.07771924
-0.049495287 -0.09856784 -0.13141386 -0.077123255 0.028564584 -0.114777185 0.25549737 -0.2864508
0.4143087 0.06870345 0.03186877 -0.03233834 -0.23986329 -0.13668495 -0.110683344 -0.15788113
0.08237229 -0.08831459 0.01564734 -0.012119182 0.21398869 -0.15324296 0.08946838 -0.043621313
0.36437616 0.21949098 -0.071516484 -0.07821575 -0.3960959 0.2198425 -0.09140506 -0.18496381
-0.22897196 -0.074115284 -0.05189814 -0.2248317 -0.1608719 0.04989801 -0.24193738 -0.072183765
-0.0047443975 -0.009042915 0.09909377 -0.08887547 0.21480606 0.17059307 0.12764701 0.058077972
0.06971016 0.020623427 0.03226699 0.06796323 -0.10926576 -0.13667203 -0.04524347 -0.04684751
-0.17213574 -0.18359418 0.17154735 -0.05044597 -0.20563298 0.18894507 -0.01621421 -0.23422003
0.11236274 0.12163257 -0.20098981 0.02753296 0.12804459 0.04309396 0.058608424 0.2524464
-0.1912677 0.09372686 -0.044142853 -0.034752093 0.01568605 0.0011206109 -0.1448733 -0.108776964
-0.18404007 0.29358923 -0.14867488 0.0011023582 0.072254434 -0.3976829 -0.030984204 0.11904166
-0.04028628 -0.28275356 -0.05783354 0.039692298 0.03009096 -0.22159311 0.1461487 0.010599127
-0.03142959 -0.11802488 -0.003193175 0.12431737 -0.16618587 0.029842503 0.21794863 -0.050920933
0.14769045 0.057934437 -0.12421573 0.15096599 0.23379318 -0.11558907 0.1655353 -0.101351835

network_body._body_endoder.seq_layers.2.bias f4 [256]
00000000: 71a2 253d b074 a9bd e561 123c 35e9 27bc
00000010: 4edb b2bc ac25 4ebd c3d6 81bc f93d d93b
00000020: c216 d1bc 9d06 febd 9507 533d 7e6a 4ebc
00000030: d6aa 463d 04f2 2dbc f832 95bd c7af bf3c
00000040: 1d92 aebc add3 42bd 09f4 cd3d f70a 4abd
00000050: 173b 9dbc a8cb dfbb 03db 6cbd 033d a3bd
00000060: 6f4e 3dbd afbb ffbc 9fbd e4bd b2e1 5abd
00000070: cb1c c0bd 8115 cc3d b838 773d 09b7 1e3c
00000080: ddf5 bbbd d644 5a3c 57da 92bd 64ed fabc
00000090: 6d1c 8e3d 0d55 853d deb0 71bd 02ca 1d3a
000000a0: 3a8d 30bd c9c6 14bd 7673 91bd dceb 87bd
000000b0: 5f10 133d e7ae a3bd 4e8a 84bd f56c 453c
000000c0: 8eaf 993d 27eb 743d 555c 0bbd 517a 06bc
000000d0: 601f 3d3d fa91 4e3d efda 3b3c 90c4 3c3e
000000e0: a145 a2bc 27d7 863d e83c 923d a6b3 c3bc
000000f0: 5285 ad3d f0d3 d4bc c9f3 8e3d 6e00 a8bd
00000100: 8219 f6bd fadc 903d 64a0 0dbc 62d2 5c3d
00000110: 0b28 243d a2e4 a7bd 2397 83bc e74c 51bc
00000120: f096 4a3d 0012 a93c 1d99 aebd bcac a4bd
00000130: 681c a43d 5477 f9bc c448 6c3d d252 b0bc
00000140: 008d 313c 89d9 583d 69a4 d23b db30 8bbd
00000150: b648 d7bc 286d 96bd 19a0 a03c 3dc3 fcbd
00000160: 28f6 32bd 4451 0ebe 9086 28bd 6f5c 08be
00000170: e96b 3dbd efd7 a83d 9a92 103d 4455 7ebc
00000180: fe38 4f3d d057 b1bd 7fca 34bd f9f6 ce3d
00000190: 4ae1 bdbd 5af4 9d3c 81ee dbbd 0ab2 1cbd
000001a0: 9030 2fbd 1811 b63c 5b89 f3bc 62e4 bebd
000001b0: 8faa 5bbc d3af 9f3d 5647 de3d 07e5 0d3d
000001c0: f2df 2abd bdd1 39bd 1a80 563d a215 0bbd
000001d0: c377 bbbd ef4e 2f3c b660 b4bd 9ad9 b03c
000001e0: 3752 293c 8ab6 0bbd 6155 2ebd c31f 813d
000001f0: e446 3a3b 8c4e 103d d7f9 923d 1f9d ec3c
00000200: 6388 f33b 7fc5 5ebd 0e44 713c 1509 003e
00000210: 2831 a33c 72a8 343d 795a 47ba aa41 f03c
00000220: e598 d3bb 8ec7 5dbd d9ff 07bd abdd 5abc
00000230: e0c3 5abc 0a32 62bb fdd2 b03d 8093 3cbc
00000240: 5f45 663d 1fe0 0e3b b38f 7cbd 414d 48bd
00000250: d414 89bd fa03 29bd ac9b 95ba 201c 18bd
00000260: 36b2 93ba 807e 613b 81d9 dc3b b76f a6bd
00000270: fcd3 69bc 06ca 53bd 61cb d1bc 786b 12bc
00000280: 1f5f 5b3d 5918 1b3d 1877 a0bd 8e4b 3fbd
00000290: 172e 2a3d fb68 40bc 2a26 2bbd 53e0 4fbc
000002a0: 942d d9bd ffe0 d4bd abc0 73bd 2834 c5bd
000002b0: e193 0a3d fbb7 f1bc 23f6 09bd 5c5f 26be
000002c0: cd94 f4bc 1445 8c3d 2162 1c3d 8ae6 87bd
000002d0: fe6a 9b3b 9c36 5e3d 1b0e 9abd b6f4 3fbc
000002e0: bc6c f3bc b106 3cbd 3fe8 1c3c cf2c 0ebd
000002f0: 2b81 a8bd bfff cebd 5c7d adbc 0772 713d
00000300: ff2f 4b3c 81fb 7a3d ba81 2dbd 1e6b 30bd
00000310: 25fc 5abd 8db7 5c3d 6fba 68bd 76e1 95bd
00000320: baa5 06be 9db1 e33c 80d3 e03d 5ae3 7dbd
00000330: ffdb 0abd b122 853d c272 10be 1f65 8d3d
00000340: a43d cdbc c563 1f3d bde5 72bd 4b20 b9bc
00000350: 4403 623c 339e 06bd af40 013d f935 58bc
00000360: 8cb3 fcbc ccca 043d 12a9 673d 7bee 96bd
00000370: 309c 843c b4c8 933b b853 2a3c b438 52bc
00000380: c083 4a3c f1dc 08bd e3e7 3f3c 5720 053d
00000390: 51be 25bd 649f a3bd 293a 92bd ad09 a2bd
000003a0: 2018 b23c f436 69bc 518b 87bd b3ed 10bc
000003b0: 476b 393d 2709 72bc e86e 133d ff6c 693d
000003c0: e375 f73c 24ba c63d a8fc fabc 2106 45bc
000003d0: 0dc2 5b3c 009d 60bd b8e8 6b3d 5261 49bc
000003e0: d370 67bd 3721 45bd 9b71 61bb 2945 8a3c
000003f0: 7e71 4dbc b89b b1bd 0bfb a63d 9310 a2bd
0.04043812 -0.082742095 0.008934473 -0.010248472 -0.021833088 -0.050328895 -0.015849477 0.006629702
-0.025523547 -0.12403605 0.051520903 -0.012598632 0.048502766 -0.010616783 -0.07285112 0.023399247
-0.021309907 -0.04756515 0.10056312 -0.049326863 -0.019193215 -0.0068296976 -0.057826053 -0.079706214
-0.04621738 -0.031217424 -0.1116898 -0.053437896 -0.09380492 0.09965039 0.060356826 0.009687194
-0.09177754 0.013322076 -0.07170551 -0.030630775 0.069390155 0.06510363 -0.059006564 0.0006019176
-0.043103434 -0.03632239 -0.071021006 -0.066367835 0.035904285 -0.07992344 -0.06471692 0.012049903
0.075041875 0.05979457 -0.0340236 -0.008207873 0.0461725 0.050432183 0.011465772 0.18434358
-0.019808592 0.06584006 0.07140523 -0.023889374 0.084726945 -0.025979966 0.06980092 -0.08203207
-0.12016584 0.07073398 -0.008644197 0.053911574 0.04007725 -0.08197905 -0.016063279 -0.012774683
0.04946035 0.020638466 -0.08525298 -0.08040759 0.080132306 -0.030452408 0.057686582 -0.021523867
0.01083684 0.052941833 0.0064282906 -0.06796428 -0.026279788 -0.07345039 0.01960759 -0.12341926
-0.043691784 -0.13898188 -0.041143954 -0.1331651 -0.04624549 0.08244311 0.03529606 -0.015523259
0.05059146 -0.08659327 -0.044138428 0.101057 -0.09271486 0.019281555 -0.107388504 -0.03825573
-0.042770922 0.022224948 -0.029728582 -0.09320904 -0.013407364 0.07797208 0.1085345 0.034642246
-0.041717477 -0.045366038 0.05236826 -0.033956178 -0.09153702 0.010699972 -0.08807509 0.021588136
0.010334543 -0.03410963 -0.042561892 0.06304886 0.0028423602 0.035231158 0.071765594 0.028883515
0.00743203 -0.054387566 0.014725698 0.12503465 0.0199209 0.044105954 -0.0007604729 0.029328186
-0.0064574354 -0.05414539 -0.03320298 -0.013358514 -0.013352364 -0.003451469 0.08633993 -0.011509776
0.0562185 0.0021801067 -0.06166048 -0.0489018 -0.06693426 -0.041263558 -0.0011414192 -0.037136197
-0.0011268321 0.0034407675 0.0067397957 -0.08126777 -0.014271732 -0.051706336 -0.025609674 -0.008936755
0.05355751 0.037865017 -0.07835215 -0.046702914 0.04154786 -0.011743779 -0.041784443 -0.01268776
-0.106043965 -0.10394477 -0.059509914 -0.09629089 0.033832435 -0.029506674 -0.033682 -0.16247314
-0.02985611 0.06849113 0.03817952 -0.06635769 0.004742979 0.0542513 -0.07522222 -0.0117160585
-0.029714935 -0.04590482 0.009576856 -0.0347107 -0.08227762 -0.101073734 -0.02117794 0.058946636
0.01240158 0.06127501 -0.042360045 -0.043070905 -0.05346312 0.053885985 -0.056818422 -0.07318394
-0.13149157 0.027794654 0.109778404 -0.061984397 -0.03390121 0.065007575 -0.14106277 0.06904053
-0.025053807 0.038913507 -0.059301127 -0.022598406 0.013794724 -0.032865714 0.031555828 -0.013196462
-0.030847333 0.032419965 0.056557722 -0.07369705 0.016187757 0.0045100097 0.010395937 -0.012830902
0.012360513 -0.03341383 0.011713001 0.032501545 -0.040464703 -0.07989386 -0.071399994 -0.07912002
0.02174002 -0.014234293 -0.06618369 -0.008845734 0.045268323 -0.01477269 0.03599444 0.056988712
0.03020758 0.09703472 -0.030638054 -0.012025387 0.0134129645 -0.054837227 0.057594985 -0.012291269
-0.056504082 -0.04812738 -0.003439999 0.016878681 -0.012539266 -0.08672279 0.081533514 -0.079133175

action_model._discrete_distribution.branches.0.weight f4 [2, 256]
00000000: edc9 363e 598a 94be b3dd 8a3d b36b 39be
00000010: f642 27bd 6ce1 f2bc 4046 2abd 9d54 06be
00000020: 39cb 00be 4567 5f3d 80a7 f03c d80d e2be
00000030: 846b e0bd 9a68 0cbe 1e30 bebe 1d00 4c3d
00000040: 9362 5bbd 8409 41be 898b 07bf d72f 81be
00000050: 318f 5dbd e11d 02be 9698 61be 7843 3fbc
00000060: 53d1 0d3c 77a6 7abe 30d0 42be 23e7 1dbe
00000070: bd9e 56be bdea 43be 53c4 693e 4eb5 fe3d
00000080: d07d 283e b4a6 963d a05b 49be 22e1 09be
00000090: 2a52 8bbd 9815 3dbe 7c3d 1fbe f0db 94be
000000a0: 34e7 cfbe bd6e 973d fffd 573d 10b6 8a3e
000000b0: 57c8 663e 84bd 023e 9bec 96bd ac5d 803d
000000c0: 4591 bd3e d840 c23e 43d0 8b3e 8843 86bd
000000d0: 7f44 d03e 9500 0fbe fbbc 3b3e df85 babe
000000e0: 63d2 53be c072 2f3e f9b5 93be 03d1 f2bd
000000f0: 1efe 993d 1f8f 0abe 39db 93be 8aff 2bbd
00000100: 814a a0be 2d04 45be 9984 d73d ad59 06bf
00000110: 15c9 20bc 0a4e 95be bf21 88be 0a6f 7d3b
00000120: e11c ad3e b758 443e 78e8 8cbd 6d0b e43d
00000130: 7993 9d3e a9ca be3e 9377 0cbe 0227 303e
00000140: 29f8 22be 70c8 b43d f710 a23e b3eb 033e
00000150: 3f5f cb3c 4dc5 233d 5a01 07be ea68 42be
00000160: dc59 b6bd e4b2 55be 4d22 37bf ce10 563e
00000170: 5a6f 92be d1d1 693d 0726 c4bd 80fa 7a3d
00000180: ccc5 3cbe c4b3 9f3e 6917 12be c29f e33d
00000190: 2c37 1d3e 411b 0ebe 3bdf 953e 3c68 4d3e
000001a0: cc03 a8be e159 6abd de53 9bbd 2fe8 753e
000001b0: 832b d13d 5330 82bd 6271 f7be 8a8a 293d
000001c0: 5897 753e a3a3 afbd 78ed 7b3d fd2b 1abc
000001d0: 4632 46be 655b 4e3e b33b 85bd 7871 96bd
000001e0: 0341 4a3e bf83 003d f041 02be 34e5 853e
000001f0: ef09 68be 8101 e8be dc95 7abc c281 b5bd
00000200: b8bd 0abf cb35 88be 64e0 bc3d 57e9 123b
00000210: e7be 07bd 9074 5d3e 58da 913e 5131 b03c
00000220: 0a73 58bd 7188 9a3e 6e5a f4bc b004 1d3e
00000230: 9eea c23e ea48 ab3e b4f7 92be 544c ab3d
00000240: abb9 d93e 498a 0b3e 8dcb 85bd 9da8 dc3d
00000250: 58b8 c83e 18cb 1b3d 05ff e8bd 6d68 c7bc
00000260: 313e 3ebe d35a 9a3e 2289 1b3d 4e08 16bb
00000270: 6002 c43c 25f9 773e 8be7 d6bb fcc4 3ebe
00000280: 28dd 1abe 6d2e f83d c1c5 173d b704 813e
00000290: 7a28 b33d 8740 4a3d 30c1 473e 5faf 12bd
000002a0: 4696 883e fe42 99bd 0cac e03d d506 9dbe
000002b0: 19bb babd 3487 c8bd d457 42be 7b3f 5dbe
000002c0: b3a7 9abe 646d 7a3e 26ad 5fbe dad9 6b3e
000002d0: 9434 83be d73b f4bd a014 04be 37b9 d93e
000002e0: 3264 e6bc 0fa6 163e 541f 7c3d 7689 533c
000002f0: 53bc 66be ad6a 8fbe 7947 37be f430 18bd
00000300: 9f6e 173d 8b36 593e 273c bdbd ae8e 303d
00000310: 50ef 4bbe 2d89 903d d84d 9bbe 42ae 02be
00000320: 5dfb 4fbe 66ff b1be 32d2 8f3e e7f2 79be
00000330: 6408 2bbe 4e5f 813d 27c0 953e 9ec3 043e
00000340: 5237 683e 469f ad3d d738 473e 0fed 21be
00000350: 4946 af3e b325 7fbd 6cb3 473d 416c 7f3d
00000360: 758e 463e 6bac 68bd 2255 b93d 1337 2b3e
00000370: b616 91be ea1f d03d 95d8 05bd a8a6 583e
00000380: 8d67 94bd 74d7 38be a9eb 06bf 622d 163d
00000390: 4516 c6bd 9a56 8bbe 40ca 3ebe a3e4 88be
000003a0: 71b4 8c3e 49d5 293e 0fbe 73be b0b2 4fbc
000003b0: 522e 913e 4d13 233e c726 893e 6aa1 633d
000003c0: 514f 76bd 3078 943e 451f 973e 4365 2abd
000003d0: 48ec 8abe 8bdf 5bbe e90f 5d3e afa2 033e
000003e0: b3b0 9b3e 8a8b bfbd 975d 48be cc0a 06be
000003f0: 314f 833e 84b1 c8bd 5744 8fbe 2551 55bd
0.17850466 -0.290118 0.06780567 -0.1810749 -0.040835343 -0.029648505 -0.041570902 -0.13118215
-0.12577523 0.054541845 0.029376745 -0.44151187 -0.10958007 -0.13711777 -0.37146086 0.049804796
-0.053560805 -0.18851286 -0.5294729 -0.2523181 -0.054091636 -0.1270671 -0.22030863 -0.011673801
0.008655864 -0.24477564 -0.1902473 -0.15420203 -0.20958991 -0.19132514 0.22828798 0.12436925
0.16454244 0.07356015 -0.19663858 -0.13464788 -0.06802781 -0.18465269 -0.15550798 -0.2907405
-0.4060608 0.073941685 0.052732464 0.27092028 0.22537361 0.12767607 -0.07369348 0.062678665
0.37024894 0.37940097 0.2730733 -0.06555849 0.40677258 -0.13965066 0.18333809 -0.3643026
-0.20685725 0.17133617 -0.28849772 -0.11856272 0.07519172 -0.13531159 -0.2887819 -0.041991748
-0.31306842 -0.19239874 0.10523338 -0.52480584 -0.009813567 -0.29161102 -0.26588246 0.003867092
0.33811095 0.19174467 -0.068802774 0.11134992 0.30776575 0.37263992 -0.13717489 0.1720238
-0.15914978 0.08827293 0.31653568 0.12882881 0.02482569 0.039983083 -0.1318411 -0.18985334
-0.08903858 -0.20869023 -0.71536714 0.20904848 -0.2860058 0.057084862 -0.09577566 0.06127405
-0.18434829 0.31191838 -0.14266743 0.11114456 0.15353078 -0.13877584 0.29271874 0.20059294
-0.32815397 -0.05721462 -0.07584356 0.24014352 0.10213377 -0.06356873 -0.48328692 0.041391887
0.23983514 -0.08576133 0.061505765 -0.009409902 -0.19355115 0.20152052 -0.06505527 -0.07345861
0.19751363 0.031375643 -0.12720466 0.2615143 -0.2266004 -0.45313647 -0.015294518 -0.0886264
-0.5419574 -0.2660354 0.092224866 0.0022416913 -0.033141043 0.21626496 0.28486896 0.02150789
-0.052844085 0.30182222 -0.029828276 0.1533382 0.38069624 0.33454067 -0.28704607 0.08364168
0.42524466 0.1362697 -0.06532965 0.10774348 0.39203143 0.038035482 -0.11376766 -0.024341786
-0.18578412 0.30147418 0.037972577 -0.0022893134 0.023926914 0.24216135 -0.006558364 -0.18629831
-0.15123427 0.1211823 0.037053827 0.2519891 0.08747955 0.049377944 0.19507289 -0.03581178
0.2667715 -0.07483481 0.10970315 -0.30669275 -0.09117717 -0.09791413 -0.18978816 -0.21606247
-0.3020607 0.24455792 -0.21843395 0.23032323 -0.2562605 -0.11925476 -0.12898493 0.4252412
-0.028123949 0.14711784 0.061553314 0.012911191 -0.22532777 -0.28011075 -0.17898358 -0.03715606
0.03697073 0.21212213 -0.09239989 0.04310482 -0.19915509 0.07057414 -0.30332828 -0.12761787
-0.20310731 -0.34765166 0.28090054 -0.24409066 -0.1670242 0.06317006 0.29248163 0.12965247
0.22677353 0.084776446 0.19455276 -0.15813087 0.3423331 -0.062291812 0.048755094 0.0623591
0.1939028 -0.056805056 0.09049441 0.16720228 -0.2833764 0.10162337 -0.03267725 0.21157324
-0.07246313 -0.18050939 -0.5270334 0.036664374 -0.09672216 -0.2721451 -0.1863184 -0.26736936
0.27481416 0.16585268 -0.2380297 -0.01267688 0.28355652 0.15925331 0.26787397 0.05557386
-0.060134236 0.28997946 0.29516044 -0.041600477 -0.27133393 -0.21471994 0.215881 0.12855028
0.30408248 -0.09352787 -0.19566952 -0.13090056 0.25646356 -0.097994834 -0.27981827 -0.05207934

action_model._discrete_distribution.branches.0.bias f4 [2]
00000000: bebd 193c bb72 19bc
0.009383617 -0.009365733

action_model._discrete_distribution.branches.1.weight f4 [3, 256]
00000000: 85c4 06be 7604 21be 091d 613e 0baf adbe
00000010: f3a9 623d 509d 893e 21a4 c03d 191e 173e
00000020: c3e6 b9bd c229 0b3e faf5 b7be 149a c93d
00000030: 5688 b63c 6808 2c3e 9811 903e a0a9 4b3c
00000040: be63 1abe cbc5 8e3d bc1c ec3d c28f a53b
00000050: 9681 ffbd 30ab 28be b7e7 963e 55e2 813e
00000060: 87fd 8bbe 5ab4 753e 26e3 d73d 5cdc 83be
00000070: d712 91bd 8980 8d39 d102 6fbd 2c36 e33d
00000080: 15b8 043d 2c4d 0f3d f582 843d c312 2d3d
00000090: 7e64 9fbc cf48 363e 2e1e 353e 66da 67bd
000000a0: 91a0 0ebe 0766 82be 96da 2dbe e5b8 11be
000000b0: ce74 56be 9579 663c 3bd6 9f3e 6757 1d3d
000000c0: 247c ac3c 90bb 363d a2bc 0cbe f8aa 583e
000000d0: 15ac 76be 7aca cb3c 59bf 75bd e55b 3bbe
000000e0: ce8c 78be 3fba 49be 9acf 1bbd a296 f1bb
000000f0: 29ad 8fbe 83c4 753c ec83 a53d 4b2e 30be
00000100: aebe 2ebe 6ed5 45be 42e1 92bd a56a bebe
00000110: d917 06be d10a d6bc d71f bd3e 9db4 133e
00000120: 654c 60bd 5860 08bd d025 483e 06bc bbbc
00000130: 3249 74ba bb49 eebd 60c3 a2bd 20ad fabd
00000140: 59fc 72bd 0150 d8bd f6ea b73d 74c1 42be
00000150: c566 69bd f0ac 343e 2da1 2c3e 1e99 a13b
00000160: a3e0 263e bd60 2cbe 5285 30be d604 4f3e
00000170: 9143 29be 09f8 423e 6eef cbbe 5c5c 7abe
00000180: 4c33 bd3d 6e0b 29be 6492 edbd 3e15 733e
00000190: cfcd fd3d 7a4d c83d d1bc 5d3d 9572 fbbd
000001a0: 5c5b 913e b1bd 23be 7861 09be 2019 55bd
000001b0: cb93 0abe 508f 08bf dcff 673d daf6 2cbd
000001c0: f775 98be 39ba 6bbc f9f7 a0be ee85 86bc
000001d0: c82b e2bb 6194 d1bd c5ac eb3d 5c72 153e
000001e0: ad7e 273d c2e9 c1bd d3df 7cbc df5d a4bc
000001f0: ee72 053e e525 02bc 9175 b0be cfe1 6dbe
00000200: 7b0f 9cbe 6137 123e c81a 13be 898f e2be
00000210: 4a4c 3dbd 4adf 893d 1abb 12bc ea1d a3be
00000220: 4866 813e 3172 0bbe 68fc d1bd c8ef 8a3e
00000230: 3af6 353d 65c2 34bd 2946 efbd 272b 7bbd
00000240: ed89 4abe 69cc 9dbd a719 5fbe de33 0bbe
00000250: bba1 9bbe 3e6f d23d 2185 61be 163c c6be
00000260: 629e e0bc 1120 54bd b789 24bc 6cc5 2cbe
00000270: 7a56 123e 6f6a 75bc d72b 43bd a4ad 2fbe
00000280: 38a5 0a3e e2fd 2bbe 2b8d 073e fff9 09be
00000290: 2f5b 333d f462 153e 1371 8abe 9bdc 50be
000002a0: 4fb1 403e b891 583e 35f6 f13d 10d3 823d
000002b0: 18a5 1f3e 8750 183d 1c79 e53d cc88 acbc
000002c0: e11e 82bc bfec d1bd e109 ddbc a07d ecbd
000002d0: 7915 423d 3b58 293d 1c79 bcbd e986 1bbd
000002e0: 4d68 82bc d255 c03d bd10 2b3e 0931 0d3e
000002f0: 0d51 bc3d 9ff4 e63d d5d1 f8bd b1e7 6e3e
00000300: f147 56be 9bf6 323e 9f1e 783e 2ec2 fe3d
00000310: b00c 263e 9a05 00be 7327 b3bd 48a0 ccbd
00000320: cf18 26bd 38de 20be 610c 96bd 7fef 2c3e
00000330: 4895 ff3d a1cf 283e 3db9 10be 1d07 603d
00000340: a79d db3b b487 c0bd 4d21 1ebc 1429 333e
00000350: 7a82 37bc 70de 243e 3c86 43bc 200d 09be
00000360: df8c 02bd 087c f1be edb1 c5bd 2021 043e
00000370: 619e 91bc ad4b 2b3d 53de 5a3e 837b 1b3d
00000380: 48c3 ebbd d741 0c3e d927 5fbe b276 9e3e
00000390: 3b58 37be 76e7 c93d 3d4b 4cbd 2b18 593d
000003a0: ad24 1a3e 7725 223c 4d98 a73e 7c7e a9be
000003b0: 315d 90bb 718c 293e 3842 79be 9355 1cbe
000003c0: 0ce0 fabd 5efd 57bd 095a 84be e84d c03d
000003d0: 6d40 63be fd54 233b 4ef3 c33d f14b 33bc
000003e0: 6abc 55be 6c45 8f3e a07f d5bd 9c1a 57bc
000003f0: 24df c33d aaf7 833e b764 103e 3366 713d
-0.13160904 -0.15724358 0.21983732 -0.3392261 0.055337857 0.26877832 0.09406305 0.14757575
-0.090772174 0.13590148 -0.35929853 0.09843841 0.022281807 0.16800082 0.28138423 0.0124305785
-0.15077111 0.0697132 0.11528918 0.0050525377 -0.124758884 -0.16471553 0.2947366 0.2536799
-0.27341864 0.2399458 0.10541372 -0.25754058 -0.070836715 0.00026989382 -0.058352295 0.11094317
0.032402117 0.034985706 0.064702906 0.04225422 -0.019457098 0.17801212 0.17687294 -0.056604765
-0.13928439 -0.25468466 -0.16977915 -0.14230688 -0.20942995 0.014067073 0.31218132 0.03841343
0.021055289 0.044612467 -0.13743833 0.2115897 -0.24089082 0.024876822 -0.059996936 -0.18296774
-0.24272463 -0.19699953 -0.03803978 -0.007372693 -0.28061798 0.015000465 0.08081803 -0.1720516
-0.17064926 -0.19319698 -0.07171871 -0.37190738 -0.13095035 -0.026128205 0.36938354 0.14424367
-0.054760356 -0.033295006 0.19545674 -0.022916805 -0.0009318768 -0.11635157 -0.07947421 -0.12240052
-0.05932269 -0.105621345 0.08980362 -0.19019109 -0.056982774 0.17644095 0.16858359 0.004931583
0.1629663 -0.16833778 -0.17238358 0.20216689 -0.16529681 0.1903993 -0.39831108 -0.24449295
0.092383 -0.16508266 -0.116001874 0.23738572 0.123927705 0.097804025 0.054135147 -0.12277714
0.28390014 -0.1599033 -0.13416088 -0.052025914 -0.13532941 -0.5334368 0.05664049 -0.042227603
-0.297775 -0.014387661 -0.31439188 -0.016421285 -0.006902192 -0.10233379 0.115075625 0.14594406
0.04089229 -0.09468414 -0.015434223 -0.020064292 0.13032123 -0.007943605 -0.34464696 -0.2323067
-0.3048056 0.14278938 -0.14365685 -0.44250134 -0.046215333 0.06732042 -0.008955741 -0.3185876
0.25273347 -0.1361778 -0.10253221 0.27136064 0.044424273 -0.0441307 -0.11683304 -0.06132045
-0.19779177 -0.07705004 -0.2178713 -0.13594005 -0.30396828 0.10275124 -0.22023441 -0.38717717
-0.027419273 -0.051788393 -0.010042599 -0.16872185 0.142908 -0.014978989 -0.04764923 -0.17156082
0.13539588 -0.16796067 0.13237445 -0.13474272 0.04378813 0.14588529 -0.27039394 -0.20396654
0.18817638 0.21149337 0.118145384 0.06387913 0.15590322 0.03718617 0.112047404 -0.021061324
-0.015883865 -0.10250234 -0.02698225 -0.115473986 0.04738376 0.04134391 -0.09202787 -0.037970457
-0.015918875 0.09391369 0.16705604 0.13788237 0.09195147 0.112771265 -0.12149397 0.23330571
-0.20925881 0.17476885 0.24230431 0.124393806 0.16215777 -0.12502137 -0.08747759 -0.09991509
-0.040551003 -0.1570977 -0.0732658 0.16888236 0.12479645 0.16485454 -0.14133163 0.054694284
0.0067021432 -0.09400883 -0.009651494 0.17496139 -0.011200542 0.16100478 -0.011933859 -0.13383913
-0.031872626 -0.4716494 -0.09653077 0.12903261 -0.017775716 0.041820217 0.21373872 0.037959587
-0.11511856 0.13696991 -0.21792544 0.30949932 -0.17904751 0.09858601 -0.04987644 0.053001564
0.15053053 0.009896628 0.32733384 -0.33104312 -0.0044056405 0.1655748 -0.24341667 -0.15267019
-0.12249765 -0.052731864 -0.2584994 0.093898594 -0.22192545 0.0024922483 0.09567891 -0.010943399
-0.20872656 0.27982652 -0.10424733 -0.013128903 0.09564045 0.2577489 0.1410092 0.058935355

action_model._discrete_distribution.branches.1.bias f4 [3]
00000000: 4cbd 67bc 3812 c23c 6ad0 863d
-0.014144253 0.023690328 0.065827206
